disease_model_state.pth (torch, 981100 bytes, 50 tensors)

conv_block_1.0.weight f4 [40, 3, 3, 3]
00000000: c52c f03d 8769 0a3e 3577 b0bd 0e82 333e
00000010: fee0 1abd f217 f53c 4045 e1bd 350f d43d
00000020: 4886 133e 4feb 52be d630 f33d 081a c8bc
00000030: 3baf eb3d 2947 783c 0e59 953d fdd5 8fbd
00000040: 9f07 f93d d26a 2bbc 8768 ffbd 8527 993c
00000050: 86b1 08be b865 30bd c39a bfbd 7602 d43d
00000060: 1c30 43be dde4 f4bd 917b c2bd 6a8c 31be
00000070: cd80 06bd 76bc 7dbe afbc 0b3e 36ac 52be
00000080: 64b7 da3d 0ac8 963b 2b84 b8bd d45e bd3d
00000090: bcbf 063d b318 333e 5745 1f3d 2e7c ffbc
000000a0: e00c b13d 21af 81bc 9ffe ea3d 51d7 5d3e
000000b0: ad5e 223e f9e1 d7bd d4b9 c43d bd50 463c
000000c0: 922f b33d 7b76 03be 02c8 4dbe 45d7 aabd
000000d0: 740e 1cbe 03b2 1e3e 3943 ad3d 26dc 5b3d
000000e0: 1633 37bd 8bfe ff3c 77cb 223e 71e1 52be
000000f0: 5e85 9b3d cc58 a4bd d5fd 483d 20ba 87bd
00000100: 152a 863c 1340 0fbe a755 2c3e 7f77 f4bd
00000110: 4c36 37be cf27 86bd 6771 623e 2f82 823d
00000120: 5430 6d3e 7ff6 21be b8bf 79be fe6c cdbd
00000130: 02dd c6bd 4f72 5d3d e8be 1a3e 74f4 703e
00000140: 6a5b 90bd 6570 a6bd 2910 153e 70a2 bcbc
00000150: cdb7 323e de47 f8bc a1f2 073e 752a f9bd
00000160: 8de9 debd db76 653d a761 a33d d471 58bc
00000170: 6a2e 253e 836e 333e a51c 03be eb1c afbd
00000180: 28af 403e 23ca a9bd e39a 9fbd 8c79 1ebe
00000190: afcf b1bd 5867 b13d 7667 c73b 419d 1bbe
000001a0: 2ec3 453a 06fa 06be d3cf 55be c732 0bbe
000001b0: 5345 8ebe 4128 7fbe ebb3 c53d efb7 94bd
000001c0: b322 abbd d43a 92be 19a0 4dbe ebd7 2cbe
000001d0: 2e22 1ebd c7bd 17be 498d a5bd 50cc c1bd
000001e0: fae1 283c 844f b7bd 10e0 bfbb 259c b6bd
000001f0: 4ffb f6bd c566 99bd 5317 aabc 7ae5 f9bd
00000200: d77d 5a3e d7db 123b d3d8 3d3e c1ea e03d
00000210: afd5 a8bd 6922 413e e472 023d 5541 f1bd
00000220: 3cf2 5cbe 407d 82be d0b7 753d 081d 47bd
00000230: 8140 583d c9ca 18be 7c7e 213e d0ac 10be
00000240: 4f99 04bd 3b56 1f3d 8eae bc3d 4b54 463e
00000250: d286 583e f128 fbbd 4123 b73d 790b 05bd
00000260: 5a3f 973c 0760 32be bab3 163e df88 31be
00000270: 763a db3d 96b8 8f3d aba9 6a3d 5574 d5bd
00000280: 7dcb 3f3e 07d4 413d fe9c ba3d 32e9 d8bd
00000290: 5017 163e e0e2 93bb 1728 cfbd 9dd9 1a3e
000002a0: fd67 113d 769b 1cbe b499 1bbe 2ef0 9c3d
000002b0: 682c 363e ac97 703c 3da1 93bd 4be1 a8bd
000002c0: 895b 32be e32b 983d 4eb7 ca3d 067e 7cbe
000002d0: 16bd 753d 88c6 e93d 2e0a 553d 14d3 94bd
000002e0: b791 8d3d be72 923d 1a6f 673d 167b 9cbd
000002f0: 3d3d cbbd e05d 823d 5642 33bc d2da f1bd
00000300: 0b10 353e 1962 523e f652 8cbd a17c 50bd
00000310: 0768 afbc 17ae dabd 2a68 9f3d e52e 953d
00000320: 011d 57be 91ef cebc 0e71 4f3e a2ad 4d3d
00000330: c39c 3fbc 2974 ffbd 5d44 3cbe 6242 11be
00000340: fb61 2cbd 99c3 0e3d 5672 2f3e cfc0 093e
00000350: a1b3 41be 6106 dbbd e752 cbbc 0e2c 123e
00000360: 5635 2d3d 289f 5dbd dec2 993d 89b2 9ebd
00000370: aeb8 26be e0be e53d b26e d3bd 549d 9bbd
00000380: b154 5fbe 5264 453e 5607 4a3e fd36 f83d
00000390: 8cb6 b1bd 8726 27be 56bd febd f072 323e
000003a0: 9efd e63d d95c 443e 786c ed3d e966 3e3d
000003b0: c01b cb3a 6c34 19be e7b9 47be c354 48be
000003c0: 6efe 7c3d ae3b ffbd 2d05 65bd 0eec 25be
000003d0: d69e e7bd 123e 69be af8f 11be ad03 cc3c
000003e0: 4264 e2bd 9960 103e b20a 2cbd f8b5 06be
000003f0: 2850 513c ced2 43bd 197e 8fbc f504 f8bd
0.11727289 0.13516818 -0.08616487 0.1753008 -0.037812226 0.029918645 -0.109995365 0.10354463
0.14406693 -0.20597576 0.11874549 -0.024426475 0.11508032 0.015153685 0.072923765 -0.07023237
0.12159657 -0.01046248 -0.12471109 0.018695602 -0.1334897 -0.043065757 -0.0935569 0.10352032
-0.19061321 -0.11957715 -0.09496225 -0.1733872 -0.032837678 -0.24778923 0.13646196 -0.20573506
0.1067951 0.0046014832 -0.09009584 0.09246603 0.032897696 0.17489891 0.038884487 -0.031187143
0.08645034 -0.015830578 0.11474346 0.21664168 0.15856428 -0.10541148 0.096057564 0.01210421
0.08749308 -0.12838165 -0.20095828 -0.08341841 -0.15239888 0.15497594 0.08460087 0.053676747
-0.044726454 0.031249305 0.15897928 -0.20593812 0.07593797 -0.08024749 0.049070198 -0.066272974
0.016377488 -0.13989286 0.16829549 -0.119368546 -0.17891806 -0.06550562 0.22113572 0.06372487
0.23162967 -0.15816687 -0.24389541 -0.10030554 -0.09710123 0.05406409 0.15111887 0.23530751
-0.07048686 -0.08126906 0.14556946 -0.023026675 0.17452927 -0.030307706 0.1327615 -0.12166301
-0.1088439 0.056021553 0.0797761 -0.0132107325 0.16130987 0.17522626 -0.12803896 -0.085504375
0.18816817 -0.08290508 -0.07793214 -0.15476054 -0.086821906 0.086622894 0.0060853316 -0.15196706
0.00075440377 -0.13181314 -0.2088006 -0.13593589 -0.27787265 -0.249177 0.09653457 -0.07261645
-0.08356228 -0.28560507 -0.20080604 -0.16879241 -0.038606815 -0.14818488 -0.08083589 -0.09462798
0.010307783 -0.08950713 -0.0058555678 -0.08916501 -0.12059652 -0.07490305 -0.020763075 -0.12201972
0.21337067 0.0022408867 0.18539743 0.10982276 -0.08243882 0.18860783 0.03184785 -0.11780039
-0.2157678 -0.25486183 0.05998975 -0.04861167 0.05279589 -0.14921106 0.15770906 -0.14128423
-0.03237277 0.038900595 0.09212981 0.19368093 0.2114518 -0.12263668 0.08942271 -0.032481644
0.018462826 -0.17419444 0.14716998 -0.17337368 0.1070451 0.07017629 0.057290714 -0.10422579
0.18729968 0.047321346 0.09111975 -0.105913535 0.1465733 -0.0045131296 -0.101150684 0.15122075
0.03549956 -0.15293679 -0.15195352 0.07662998 0.17790377 0.014684599 -0.07208488 -0.08246096
-0.1741773 0.07430246 0.09898244 -0.24657449 0.05999478 0.1141482 0.05201166 -0.072668225
0.069125585 0.071507916 0.05650244 -0.07640664 -0.0992379 0.063655615 -0.010941109 -0.11809315
0.17681901 0.20545234 -0.06851761 -0.050900105 -0.021411909 -0.10677736 0.077835396 0.07284335
-0.21007158 -0.025260719 0.2025797 0.050214417 -0.01169509 -0.12473328 -0.18385454 -0.1418548
-0.04208563 0.034854505 0.1713346 0.13452457 -0.18916179 -0.10694576 -0.024819804 0.14274618
0.042287193 -0.05410686 0.07507871 -0.07748897 -0.16281387 0.11218047 -0.10323848 -0.07598367
-0.21809651 0.1927655 0.19729361 0.12119863 -0.08677396 -0.16323291 -0.12438457 0.17426658
0.112788424 0.19176044 0.115929544 0.04648486 0.0015495941 -0.14961404 -0.1950451 -0.19563584
0.06176608 -0.12462555 -0.05591314 -0.16203329 -0.113095924 -0.22777584 -0.14214967 0.024904096
-0.11054279 0.14099349 -0.042002387 -0.13155353 0.012775458 -0.04780846 -0.017516183 -0.121103205

conv_block_1.0.bias f4 [40]
00000000: 4173 27be 9be1 91bd 9b93 03bd 67b5 60be
00000010: e957 70bd 3f4e 663d 6e46 c33d 97ef e73d
00000020: 62ad 88bd 3f1f 66be 8b96 aebd 84a5 e03d
00000030: fb3c e1bd b71d 463e ff76 373e 6c5b 8fbd
00000040: 5fc9 9dbd 58d3 953e 44df 483d 0be1 223e
00000050: f4df edbd 6703 2e3e 6b2a ddbd 5561 133e
00000060: 3b79 9ebd 65c0 973d 0f9a 2f3d f112 fb3c
00000070: 22cb 0b3c 2a69 353e 22e1 99bd fb5f 46be
00000080: ec90 eabd 83bd 153e 8141 87bd 2a53 46bd
00000090: 9c9b 60bd eaa6 1c3d 3c92 2f3e 57e4 c43d
-0.1635256 -0.07123109 -0.03212319 -0.219442 -0.058677588 0.056226965 0.09534918 0.11324995
-0.06673695 -0.22472857 -0.085248075 0.109690696 -0.10997959 0.19347273 0.17916487 -0.06999859
-0.07704424 0.29262805 0.049041048 0.1590616 -0.11614981 0.16993485 -0.10799106 0.14392598
-0.077379666 0.07409743 0.04287153 0.03064868 0.008532317 0.17715898 -0.07513644 -0.19372551
-0.11453423 0.14623074 -0.06604291 -0.048419155 -0.0548359 0.03824512 0.17145628 0.09613865

conv_block_1.2.weight f4 [40, 40, 3, 3]
00000000: 49db 4dbd 7380 95bd 41f0 01bd be5f 49bd
00000010: 59d1 8fbc 8fd4 cfbd 5c3c 68bb 1577 d03c
00000020: e007 03bc b7df be3c 54a9 7fbd a281 5a3d
00000030: 1109 f2bc df93 a8bd 0577 153d db0d 5dbd
00000040: a09b 08bd f1de 503c 9f3d 0fbd 70ad c23d
00000050: 2cec c7bc 2d05 ecbc 4ffe 053e e0bb 07bd
00000060: 0526 2dbd b6d6 323d 3955 6abd 62c0 9ebd
00000070: b7cf 1b3b db30 633d 6c3d 97bd f69d d4bb
00000080: bfaa 513d f9cb 9fbc 37bd 86bd 08ce cb3c
00000090: 5e0d 873d c8fa a13d bb58 183d 7207 9d3d
000000a0: cf89 7b3d 27a4 013e 0183 8f3d 1f56 c13d
000000b0: 6144 553d 9ad6 3a3d 70f7 163d a4ca 9cbd
000000c0: ad04 93bd 8ff4 b83c a606 84bd fa8e e8ba
000000d0: 5b4b a03d 9404 373b d8da 0ebc 26c2 4a3d
000000e0: 214d 023d 71c2 503c bdfe 903d 7148 dbbb
000000f0: e855 4f3b 7bbc 133d 1c59 7cbd c4ee 8ebd
00000100: dda5 9f3d 612a 2cbe 80af 6ebc 7efe f13d
00000110: fa4e e5bd 180c 4a3d eab0 113e 3042 1b3d
00000120: a4b3 c53c af21 01bd 04d1 ef3c 98e5 6bbd
00000130: 8e80 fcbc 2fcf 983c 1053 bcbc 8448 febc
00000140: 6267 9ebc 9b20 2bbc 3955 893d b0f5 9c3d
00000150: ed85 6bbd 15ff 4b3d fd9a 3e3d 2e92 adba
00000160: 6c13 0e3e f507 ae3d 4d1d 58ba 432c 9dbd
00000170: cb3e e83c 3c36 98ba 2159 23bd 64de 683d
00000180: ca56 7dbb e8ac eabc c156 c23c 4e45 e7bb
00000190: eac0 c5bd 3d25 623c 5bc9 0b3d 2fda 81bd
000001a0: f667 093d 61d1 7bbc a77e 1d3d 1d13 a83d
000001b0: c468 183e 9d85 fc3d d533 513e 90e3 223e
000001c0: c07c 3d3e ca16 5a3e 0ae2 263e c758 f43d
000001d0: a15b 233e f1e0 80bd 5212 b9bd e874 bfbb
000001e0: 0f5c 7bbd 59c5 84bd 401a 2cbd ed71 5fbd
000001f0: 83d4 e7bc 893b 6cbd c0b1 adbd e552 babd
00000200: 6ae2 2dbd c393 aebb 749b 0dbe 61e8 86bd
00000210: 52d4 d93c 74d4 96bd 834d 37bb 13f4 5e3d
00000220: 7bcb 4c3d b605 b03d 180f ff3c fcd3 0a3d
00000230: b687 bf3d 3ad5 5b3d e71a 8d3c acf4 003c
00000240: ffd7 a03d 4692 023e 5ef8 63bd 12aa b93c
00000250: 27f5 133d 19da 9bbd fc01 61bb d84e 673d
00000260: 9173 3ebd 1c85 f4ba 2f36 21bd 8f39 cc3c
00000270: e656 293d fb76 de3c 25cc 94ba 15df b03b
00000280: 1e4a 50bd 0118 1bbd 61cd 3fbc b2bd c9bd
00000290: cf35 0cbd 5090 503d 0a06 ffbc 9a80 9ebd
000002a0: aaf8 6e3c 9b1b 51bd 2d8d 07bc 4022 0f3d
000002b0: 99b7 87bc 450a abbc dd7a e83b 174b 1bbd
000002c0: a036 62bd 474d 80bd 149d 66bd faf4 b13c
000002d0: a204 c6bb a88e 973d 6782 fbbc 6978 fe3c
000002e0: 9c77 fd3b fa30 14bd 235d 803d 20ab 9cbc
000002f0: 5064 3fbd 9aa6 963c 4cd0 ee3d a6d8 c33d
00000300: 2019 8c3d 2616 243e 6719 453e 0411 813d
00000310: 0ce3 233e 201c 0f3e 8d1b 50bd b2bd 593d
00000320: 2a0a 02bd 6ae8 16bd e8e1 933c 54d2 c53c
00000330: b8ed ecbc 43fd 9cbc 96d8 af3d c153 aa3d
00000340: ec74 a73c cbf6 d13d 3510 c63c 0c16 ce3d
00000350: db3f 2b3e 98af b93d 3ce5 3d3d 0eba 0d3e
00000360: b5a4 e73c 7eb9 3ebb cccc 433d 881b 29bd
00000370: 29c1 23bd 9bb1 c3bc 8bf8 f73a 2eb6 3abd
00000380: 0a80 16bc 85dc 0f3b 1364 5f3d efde 073d
00000390: 3931 dbb9 bf2c bd3d 805a 143d a50a a53c
000003a0: dcaa db3d 03fe d03c 7dd4 2b3c 6763 173d
000003b0: 7b10 75bd 2e12 673d e331 113d e953 7ebd
000003c0: fa1d b0bc c845 573d 49d5 8fbd 208d 8d3c
000003d0: 5d77 ff3c 4e95 5abd 2ee4 f9bc ccfc 5abd
000003e0: f895 803c abc3 4d3d 0693 913a b2e8 093d
000003f0: b56e bfbc 77e3 513d d060 e53b 884f 2e3d
-0.050257955 -0.0729989 -0.031723265 -0.049163572 -0.01755588 -0.10147964 -0.0035436368 0.025447408
-0.007997483 0.023300035 -0.062417343 0.053346284 -0.029545339 -0.08231329 0.03649046 -0.05396829
-0.03335154 0.012748466 -0.034970876 0.09505737 -0.024404608 -0.028811062 0.13085292 -0.033138156
-0.042272586 0.043661796 -0.05721018 -0.07751538 0.002377493 0.055466514 -0.07384762 -0.006488557
0.051188227 -0.019506441 -0.065790586 0.024878517 0.065943465 0.07909161 0.037193995 0.07667436
0.06141072 0.12660275 0.07007409 0.094402544 0.052067164 0.045614816 0.03685707 -0.07655838
-0.07178626 0.022577552 -0.064465806 -0.0017742806 0.07826873 0.0027926313 -0.008719169 0.04950156
0.031811837 0.012741671 0.070798375 -0.0066919853 0.0031636897 0.03606842 -0.06160842 -0.06979135
0.07795308 -0.16813041 -0.01456821 0.11816119 -0.11196704 0.04932794 0.14227644 0.03790492
0.02413351 -0.031526264 0.029274471 -0.057592005 -0.030823018 0.01865348 -0.022988826 -0.031040438
-0.019336406 -0.0104447855 0.06705708 0.07664049 -0.05750077 0.049803812 0.046534527 -0.0013242417
0.13874596 0.084976114 -0.0008244112 -0.07674458 0.028350255 -0.0011612843 -0.03987992 0.056852713
-0.0038656467 -0.028646901 0.023723008 -0.0070578223 -0.09655936 0.013802824 0.034127574 -0.06340443
0.03354641 -0.015369744 0.038450863 0.082067706 0.14883715 0.12330172 0.20429929 0.1590712
0.1850462 0.21297756 0.16297165 0.119309954 0.15952922 -0.06292904 -0.090366974 -0.0058427937
-0.06136709 -0.064829536 -0.04201722 -0.054552007 -0.028299576 -0.057673965 -0.08481169 -0.09097842
-0.042452253 -0.005327673 -0.13828832 -0.065872915 0.0265905 -0.07364741 -0.0027969785 0.054431986
0.04999874 0.08594839 0.031135127 0.03389357 0.09352057 0.053670146 0.017224742 0.007870834
0.07853698 0.12751111 -0.055656783 0.022664104 0.036122467 -0.07609958 -0.0034333458 0.056471676
-0.04649693 -0.0018655392 -0.039358314 0.02492979 0.04134264 0.027156344 -0.0011352344 0.005397687
-0.050851934 -0.03786469 -0.011706681 -0.09850635 -0.034231003 0.050918877 -0.03113081 -0.077393726
0.014585653 -0.051051717 -0.008273405 0.034944773 -0.016567038 -0.02087892 0.0070947246 -0.037913408
-0.055227876 -0.062647395 -0.056302145 0.02172326 -0.0060430327 0.074002564 -0.03070183 0.031063275
0.007735206 -0.03617952 0.062677644 -0.019124568 -0.046726525 0.018389989 0.11660823 0.09562807
0.0684073 0.16024074 0.19247971 0.063020736 0.1600458 0.13975573 -0.050807524 0.053159423
-0.031747974 -0.03684274 0.018052056 0.024148144 -0.028921947 -0.019163733 0.08586232 0.08316756
0.020441495 0.1025215 0.02417765 0.10062799 0.16723578 0.09066695 0.046361193 0.13840505
0.02827678 -0.0029102261 0.04780273 -0.04128602 -0.039979134 -0.0238884 0.0018918676 -0.045583896
-0.0091858 0.0021951508 0.054538798 0.03317159 -0.0004180761 0.0923705 0.03621912 0.020146677
0.10725948 0.025511747 0.010487673 0.03696003 -0.05983017 0.056413822 0.035447966 -0.06209174
-0.021498669 0.052556783 -0.07023103 0.017279208 0.031184847 -0.053365044 -0.030504312 -0.053463742
0.01569651 0.05023543 0.0011106438 0.03366918 -0.023368219 0.051242318 0.0070000663 0.042556316

conv_block_1.2.bias f4 [40]
00000000: 012f 02be 7ede ee3d c010 b6bd 1066 673d
00000010: f8b6 133e 41cd 68bc 9da0 d33a 7f2e 1ebd
00000020: 8e5b 8f3d dca7 7d3d 53d9 5c3c 332e 493c
00000030: 7493 62bd b6c7 1e3e 74ef 0c3e 56d7 a33c
00000040: a439 1dbd b830 c6bd ca01 d53d 78d2 3ebd
00000050: f0e7 a43c 851c 863e 016f 623e 2f78 903e
00000060: 7bed 223d 1f69 253d a0ac 3dbe 1d03 153e
00000070: 2b2c b1bd 3a65 07bc 7d2f abbd 1d6a 4f3e
00000080: da69 01be 10f3 bdbd 5421 d43c a463 c1bc
00000090: 43d1 d3bc 2fd7 2d3e 0700 8c3b cb61 67bd
-0.12713243 0.11663531 -0.088899136 0.05649382 0.14425266 -0.014209093 0.0016145889 -0.03861856
0.069998845 0.06192766 0.0134795485 0.012279081 -0.055316404 0.15505871 0.13763219 0.020000141
-0.03838505 -0.09677261 0.10400732 -0.046587437 0.020130128 0.26193634 0.22112657 0.28216693
0.03977726 0.040383454 -0.18522882 0.14551969 -0.086510025 -0.00826388 -0.08358667 0.20255323
-0.12638035 -0.09274876 0.025894798 -0.023607083 -0.02585662 0.16976617 0.004272464 -0.056489747

conv_block_1.4.weight f4 [40]
00000000: 47c3 863f f929 7a3f b26a 733f 446c 6f3f
00000010: b637 783f 8231 7a3f aa0d 7f3f 576c 683f
00000020: 269e 913f 2382 593f 7d0d 773f 46ca 7b3f
00000030: ad26 643f 96f2 633f f0c1 843f e7da 693f
00000040: 0f75 743f b3dd 883f c672 823f 9160 623f
00000050: 88fd 783f f04c 733f 7746 783f 7d51 6e3f
00000060: 103d 723f 1bdf 713f 92c5 933f e523 7f3f
00000070: a207 6a3f d49c 783f 6fb0 813f be2e 713f
00000080: a742 893f 07ee 813f 5396 883f 53e8 723f
00000090: 5f09 733f d4a2 623f cb75 713f d417 843f
1.0528344 0.97720295 0.9508468 0.93524575 0.9696001 0.9773179 0.99630225 0.90790313
1.1376388 0.849642 0.96504956 0.9835552 0.89121515 0.8904203 1.0371685 0.91349643
0.9549112 1.0692657 1.0191276 0.884286 0.9726186 0.9503927 0.9698252 0.9309309
0.94624424 0.94481057 1.1544669 0.99664146 0.91417897 0.971143 1.0131968 0.9421195
1.0723466 1.0150765 1.0670875 0.9488575 0.94936174 0.88529706 0.9432036 1.0319772

conv_block_1.4.bias f4 [40]
00000000: 3b78 e33d feac e23b 1b84 a03b 192e b2bc
00000010: 6b7e 793b ac1b 7cbd 813b dd3c edf8 f0bc
00000020: f425 39bd c9cc 58bd 9bfb b83c b884 843d
00000030: b1e5 253d 3a86 00be cd23 81bb dba5 d8bb
00000040: 5137 de3c ab99 163d 28dd 9b3c bef8 323d
00000050: f206 543d 5bd1 2b3d b31f 863c 09fa a8bc
00000060: 9796 bd3d 1712 ab3d b66c 013d 7f6e 443d
00000070: ddf1 51bc 9723 c43d aa15 d73d 3f24 8dbc
00000080: fd30 5f3b 6d7a c03d 90ac 0f3d b439 cbbc
00000090: c66d 76bc 48f7 afbb f130 b83d cf68 f73d
0.111069165 0.006917595 0.0048985607 -0.021750497 0.0038069736 -0.061549827 0.027005913 -0.029415572
-0.04520221 -0.052929673 0.022580912 0.064706266 0.040502254 -0.12551203 -0.0039410354 -0.0066115684
0.027125986 0.036767643 0.019026354 0.04369425 0.051764436 0.041947704 0.016372537 -0.020627039
0.09257238 0.0835306 0.031597815 0.04795694 -0.012814012 0.09577101 0.10502179 -0.017229198
0.00340563 0.09398351 0.035076678 -0.024807788 -0.01504082 -0.0053700544 0.0899371 0.120805375

conv_block_1.4.running_mean f4 [40]
00000000: 1da4 86be 7548 5d3e 85eb 80bd 0c17 513e
00000010: 9691 273f e0e2 a53c 7ac2 bb3e 4150 dfbc
00000020: ebec 763d 8e36 323e 2fcb 22bc b956 d5bd
00000030: 12ec 7d3e 79be a83e 704f 2cbc 1497 2cbe
00000040: 75d1 11be 96ad 80bd aac7 b33e bc0c 8a3d
00000050: 340a e5bd b6d6 3d3f cd55 113f 9d80 4c3f
00000060: 41b4 fcbd 7f9e a0bd f8a9 54be 3e99 393e
00000070: 7ed6 74bd a714 69be 7f67 75be dc7f 883e
00000080: f760 75be 309a 75be 95f2 b939 5f07 dbbd
00000090: 1e34 0dbe 690a 053f fc1d febd 1e04 61be
-0.26297083 0.21609671 -0.06294922 0.20418948 0.6545652 0.020249784 0.3667181 -0.027259948
0.060284536 0.17403623 -0.009936138 -0.10416932 0.24797085 0.3295782 -0.010516986 -0.16854507
-0.14240058 -0.06283109 0.3511327 0.0674071 -0.11183587 0.7415575 0.56771547 0.7988375
-0.12339068 -0.07842731 -0.20767963 0.18124864 -0.05977487 -0.22761784 -0.23965262 0.2666005
-0.2396277 -0.23984599 0.00035466687 -0.10694765 -0.13789412 0.5196901 -0.12408063 -0.21974227

conv_block_1.4.running_var f4 [40]
00000000: f566 b63a d6ce 1d3d 7b1d 063d 2392 ac3c
00000010: 2dad 503d 7d53 d83c 61ed 4a3d 700c 0d3d
00000020: 4ca7 113c 7311 2c3d 217e f83c 9cc9 ea3b
00000030: d024 233d 7b1a 043d 71e0 f13b d17c 923b
00000040: b3a3 aa3b 4c53 c93c 713d 2a3d 27fb 7e3d
00000050: da72 193c 7b2c 413d f489 243d 8fc4 5c3d
00000060: 2a9c 293c b238 193c fa02 603b 8e28 4f3c
00000070: 7108 103d f467 7e3b 5e61 1b3b 06d1 373d
00000080: 928a 4e3b c436 2f3b 172e 6e3c 5d58 313c
00000090: 5f39 673b da6e 063d 1826 b23b 1d05 663b
0.0013916182 0.038527332 0.03274296 0.021065777 0.050946403 0.026406998 0.04954279 0.03443569
0.008889984 0.04200883 0.03033358 0.007165147 0.03983003 0.032251816 0.007381492 0.0044704457
0.0052075027 0.024575852 0.0415625 0.062251236 0.009365762 0.04716156 0.040170625 0.05389839
0.010352174 0.009351896 0.0034181462 0.012643946 0.0351643 0.0038819285 0.0023709158 0.044877075
0.00315157 0.0026735524 0.014537356 0.01082429 0.0035281999 0.03282056 0.00543667 0.0035098263

conv_block_2.0.weight f4 [40, 40, 3, 3]
00000000: 746b 23bd acac 16bd 91a2 57bd 0088 c2bc
00000010: aedb 13be be96 01be e716 afbd 6889 05be
00000020: 8ebc d6bd b944 9cbd 496c 1ebd 0b43 f4bc
00000030: bdd0 3cbc 0815 06bd 96bb e4bb 1456 7ebd
00000040: 3811 3bbd 6f39 a33b c4c2 6bbc 121d 7dbd
00000050: 2787 1fbd 0022 2ebd d93a 8abd 2140 2ebd
00000060: 956f e33b f87c 2fbc 8ff3 113d cf08 9bbd
00000070: 7a5e 9dbd 46d5 a6bd 3277 9abd 87ba c6bc
00000080: 5b1b 8c3c 0fa0 59bd 8630 febc 493e 703c
00000090: 01ba 453d 6d31 583d c1e8 dd3c 7a02 943d
000000a0: bca0 5d3d 3fbb c43d 5135 e93c ccc3 d53b
000000b0: 15e7 553d c313 acbc b449 56bc 8ed8 bdbc
000000c0: 1e01 0dbd d430 66bc d794 d5bc a6cd ad3a
000000d0: 61d8 13bd d526 06ba 08f3 e23c c803 3c3d
000000e0: d193 753d c3ce 00bc 9c21 7d3c e3ab 99ba
000000f0: 31d5 d7bc 93e0 823a c907 423c 48dc 72bd
00000100: d9a1 6dbd 9404 a8bd ff57 41bd a13d d0bc
00000110: 005b 38b9 51c7 973b 8e79 6dbd e076 44bd
00000120: 77fa 03bd b736 5cbd 1a5c b1bd a657 e9bd
00000130: e031 0ebd 9863 0ebe 9dc1 b8bd a683 e4bc
00000140: 4c19 50bc 3a5a c6bd 87cf e1bc 9069 eebc
00000150: e873 12bd 2226 64bd 717a 20bd 646b 0abb
00000160: 7101 c03c 7ca5 233d cb4d 80bd c0eb 423c
00000170: 7a5a 38bc ec61 76bd 1b27 8abd 25d0 6c3c
00000180: 7c56 303b c26f 933b 322f adbc 23c8 773c
00000190: a29e b4bd 3292 fcbd 60e0 b0bc 91ce 11be
000001a0: a1ce c3bd a173 debd b4f6 28be 2c33 3bbe
000001b0: 7d06 2ebd 5b51 e9bc f649 863b 125a 64bd
000001c0: 8071 3abd 2128 373d e05c 1fbd ca69 f93c
000001d0: 4b16 e7bc 199a 16bd 57ce 0ebd 59b2 4bbd
000001e0: 5e41 1cbd 799e 46bc 0f5f 82ba 54c1 b63c
000001f0: 0286 b9bc 0a77 4c3d e9da 1d3d cf29 bfbc
00000200: 8429 33bd 6408 1e3d a24c d5bc 7619 1dbd
00000210: ecf9 81bd 5d75 14bd da73 c3bd 826f 23bd
00000220: acd9 87bd a497 02bd 91ab 2ebd 183e 98bd
00000230: 3d85 1cbd 24e5 81bd 5912 34bd b2f5 ecbd
00000240: 09ea 1cbd c3d4 a1bd 66c2 1cbd 794f 91bd
00000250: f955 c0bc 5526 a0bd 049d a6bc ab3c f8bd
00000260: 6763 1dbe 9efc 6abd 2f69 86bd 5adf 5fbd
00000270: d572 e33b 77e0 24bb 81d4 83bd 073d 453c
00000280: 92a4 8ebd d67e a5bd b7c1 1ebb 790c 34bd
00000290: aa15 b0bd 2b1c b9bd 2242 8fbd 103a d5bc
000002a0: a9d5 ea3c 5ebe 3d3c 775b 8ebd 31ce 2abc
000002b0: 767d e1bc 1f49 9abd 398a f4bc 4c39 91bd
000002c0: 3f45 f5bb f5ec 34bd 939f 0cbd 6c57 593b
000002d0: 106c a9bc fd5d 6cbd 895a 07be b47b 44bd
000002e0: 1067 b3bd 0145 15be 331c c9bd 138e fdbd
000002f0: b29a 17be 4843 66bd d6bb 1dbd 2fb8 753d
00000300: 6fa9 0ebb cbd9 133d a5fe b2bb 85a4 ec3c
00000310: 7799 a33d 2c4d 713d 6799 fdbc e31c e9bc
00000320: c925 b03c 967e 4cbd 30d0 51bd ed06 35bd
00000330: b0e6 6d3d cd4a b63c 0360 0d3d 9d30 46bc
00000340: a199 7b3d e639 2f3d 80e3 173d 483f fe3c
00000350: 43a6 a73d 1a41 77bb f471 ae3d a710 c33d
00000360: b32e aabd 1a26 adbd 4cc2 b9bd bed2 b2bd
00000370: b1c1 c8bd 267d 08be 7098 39bc 35fb e3bd
00000380: c6c0 1abe d8ae 95bc b490 84bd 9b49 9dbd
00000390: f578 5cbb e89c 2abd db17 e0bd 1e5e 6cbd
000003a0: 2493 b1bd b4dd 06be 40a7 4d3a aadc 85bd
000003b0: d88f 28bc 3837 6fbd 7615 b1bd 07a8 f2bd
000003c0: bda8 afbd ef69 49be 5698 13be 3380 13bd
000003d0: ac5d 183c b14c 8dbd 4675 eb3a d1b0 23bd
000003e0: cfbe ccbd 4801 a2bb 54ec 003d 4186 d1bd
000003f0: 88ac 9fbd 4d9e 89bc c365 92bc f21d 13bd
-0.039897397 -0.036785766 -0.05264527 -0.02374649 -0.1443927 -0.1265516 -0.0854929 -0.13040698
-0.10485183 -0.07630295 -0.038677488 -0.029817125 -0.011524376 -0.0327349 -0.00698037 -0.06209381
-0.045670718 0.004981212 -0.014389697 -0.0617953 -0.03894725 -0.042512894 -0.067495055 -0.042541627
0.006940792 -0.010710947 0.035632666 -0.075700395 -0.076840356 -0.081461474 -0.07542266 -0.024258865
0.017102888 -0.05313116 -0.031028997 0.014663287 0.04827309 0.05278151 0.027088525 0.07227035
0.054108366 0.09606027 0.028467806 0.006523585 0.05222233 -0.021005517 -0.013079096 -0.02317455
-0.034424894 -0.0140497275 -0.026071949 0.001326014 -0.036095027 -0.0005117481 0.027703777 0.045902044
0.05995542 -0.007861796 0.015449908 -0.00117242 -0.026346775 0.0009985141 0.011842676 -0.059292108
-0.058015678 -0.08203998 -0.04720306 -0.025420012 -0.00017581508 0.0046319147 -0.05797725 -0.04796493
-0.032221284 -0.053763118 -0.08660145 -0.11393671 -0.034715533 -0.1390518 -0.09021304 -0.027894806
-0.012701344 -0.09685178 -0.027564777 -0.02910307 -0.035755068 -0.05570043 -0.03917927 -0.0021121139
0.023438187 0.03995274 -0.06264838 0.0118970275 -0.01125204 -0.06015198 -0.0674574 0.014453922
0.0026907017 0.0044994066 -0.021140669 0.0151234 -0.08819319 -0.12332572 -0.021591365 -0.14238955
-0.09560896 -0.10861898 -0.1650036 -0.1828124 -0.042486656 -0.028481176 0.0040981723 -0.05574996
-0.0455184 0.044716004 -0.038906932 0.030445952 -0.028208872 -0.036768053 -0.03486475 -0.049730632
-0.038148277 -0.012122744 -0.0009946543 0.022308983 -0.022646908 0.049918212 0.038538847 -0.023335366
-0.043740764 0.03858222 -0.026037518 -0.03835436 -0.06346497 -0.03624474 -0.09543581 -0.039901264
-0.066333145 -0.031882897 -0.042644087 -0.074337184 -0.038213003 -0.06342533 -0.04396281 -0.115703
-0.03830913 -0.07901909 -0.03827133 -0.07095236 -0.023478495 -0.07819811 -0.020338543 -0.121209465
-0.1536995 -0.05736982 -0.06563031 -0.054656364 0.0069411793 -0.0025158206 -0.06437016 0.012038476
-0.06964983 -0.08080833 -0.002422435 -0.043957207 -0.08597882 -0.09038576 -0.06995036 -0.026028663
0.028666334 0.011581032 -0.06951039 -0.010425136 -0.027525645 -0.07533478 -0.029851066 -0.07091007
-0.0074850614 -0.044171292 -0.03433187 0.003316368 -0.020681411 -0.05770682 -0.1321813 -0.047969535
-0.08759892 -0.14577104 -0.09819832 -0.12380614 -0.14805105 -0.05621651 -0.038509212 0.059990104
-0.002176847 0.036096375 -0.005462485 0.028887043 0.079882555 0.058911487 -0.030956937 -0.028456157
0.021502392 -0.04992541 -0.051223934 -0.044196058 0.05808133 0.022252465 0.034515392 -0.012096551
0.06142581 0.042779826 0.037082195 0.031036034 0.08186009 -0.0037728013 0.085178286 0.095246606
-0.083096884 -0.08454533 -0.09070262 -0.08731602 -0.09802569 -0.1332899 -0.011327848 -0.11131898
-0.151126 -0.018271849 -0.064729124 -0.07680055 -0.0033641432 -0.041653544 -0.1094205 -0.057706945
-0.08670643 -0.1317051 0.00078450516 -0.06536229 -0.010288201 -0.05840227 -0.086466715 -0.11848455
-0.08577106 -0.19669317 -0.1441358 -0.036010932 0.009299677 -0.06899393 0.0017964027 -0.039963547
-0.09997331 -0.0049440004 0.03147538 -0.10230685 -0.077965796 -0.016799117 -0.01787079 -0.03591723

conv_block_2.0.bias f4 [40]
00000000: b3d8 323c 735a be3d 26be 0e3c 3ec7 0b3e
00000010: e20c 8cbc 548e 1abc 5b6b f0bb 1a41 693c
00000020: 389e 8a3d 8c65 81bd 79af 573c 72df 123d
00000030: 7a67 efbd fbff 613d b0df 8b3d a1ff 9bbd
00000040: c5e6 803e 6046 81bc 7b3d 1ebc 0268 c1bd
00000050: c436 f1bc 1ad3 e8bd 5ecb 46bd 27ba 013d
00000060: 25ca b63d bde0 ef3d af0f 1ebe 2123 a73d
00000070: d014 f6bd 7235 d1bd 1f80 003d 5ced e13d
00000080: a1e6 6ebc 2b94 be3c f934 003d d7a5 7f3d
00000090: 09b3 16bd ffd1 31be 4a5e 113e 3e92 0bbd
0.010915923 0.092945956 0.008712327 0.13650224 -0.017095987 -0.009433348 -0.0073370165 0.014236713
0.06768459 -0.06318197 0.013164395 0.035857625 -0.116896585 0.055175763 0.068297744 -0.07617117
0.25176063 -0.015780628 -0.009658213 -0.09443666 -0.02944506 -0.113683894 -0.04853379 0.03167167
0.08925275 0.11712787 -0.1543567 0.08160997 -0.120156884 -0.10215272 0.031372186 0.11031601
-0.014581353 0.023264011 0.03130052 0.062414017 -0.036791835 -0.17365263 0.14196125 -0.034075014

conv_block_2.2.weight f4 [40, 40, 3, 3]
00000000: d0f9 b53d e27c 803d f16b a9ba 610a 553d
00000010: 546c 81bc 3aa9 6e3d c9fe f63b acbd a4bc
00000020: 929c 0f3d 64b0 a3bd 241b d0bd 9136 46bd
00000030: a298 ebbd 2fd0 59bd de05 083d 6fba fc3b
00000040: 719a 9bbd 0335 bebb 676d d1bd f750 b8bd
00000050: 274a c5bc f096 b43c 4ead d23c 579c 233d
00000060: 07ba aebc 3060 4a3d af98 683d a323 d03c
00000070: 0c3e 90bd 5516 04bd 1edf 203d 010f ad3d
00000080: f893 aa3d d331 aa3d 42ef c23d 91a6 013d
00000090: cec5 93bc 4e9f fa3a 347b 74bd 2876 dd3c
000000a0: cc3c 933c cc69 9c3c 1094 1cbd c340 ec3a
000000b0: 6c28 6fbc 555f 183e 70b3 af3d 7aae 32bc
000000c0: b1ae ee3d 051a a7bc 64e8 4ebc 1606 6a3d
000000d0: 2af7 513d 1f48 bebc ee6a 353d 5376 cc3c
000000e0: f67b 853d b972 f93b 1775 8b3d 9b05 183d
000000f0: 1ebf d7b9 c673 993d fafc b83c ebe9 a8bd
00000100: 6efc 95bd 27ad 82bd b250 b9bd 1e74 25bd
00000110: 7ee1 833c f20e 84bd 53fa e2bc 5b3a 24bd
00000120: 1021 dbbc 8abc 59bd 2690 4c3d 3099 1bbd
00000130: 4afc a2bc c392 7d3d 87ae b5bc bd2e f4bc
00000140: c433 ad3d 7b8f b73a 66c0 edbc e39a 893c
00000150: faac d43c 57cd bdbb 8b3a 14b9 6216 14bb
00000160: ffbf 9d3c 12e1 ea3c 7c46 97bd e3b7 213d
00000170: 5f36 ad3b 3578 423d e24d 14bd 1317 2d3b
00000180: 930e 593d 8eba 03bd 0f69 bb3b 39e1 83bd
00000190: 8392 99bc 55ea cdbc 9ce4 febc a580 aebd
000001a0: a76f 863c 97cd 2ebd 21f1 3a3d bb7c 323c
000001b0: a599 19bd a168 dbbd cd1a 48bd f8d9 fdbd
000001c0: ff40 40bd 6e78 86bd e1ad 25bd 3fc8 43bd
000001d0: 22ec 68bd c67c 253d a9bf 14bd 6766 b9bc
000001e0: 6fad 103b a53c 64bd fcc3 bc3c 5949 b1bc
000001f0: ada0 88ba d923 883b dbfb aabd 3108 a3bd
00000200: e365 00bb 4aea 5cbd 714e 9ebd b5b0 873d
00000210: 3a63 c839 fd6b 05bd 8972 3abb d338 b73d
00000220: b42c 0f3d 3932 d73d a0b9 1f3e f062 c13d
00000230: a5c3 313e 51c6 0c3e 1639 203e 0e71 0b3e
00000240: 221a 39bd 9d41 1bbb 1594 03bd f999 b73d
00000250: 1306 9a3c b0d1 cc3c 3cf2 d73d c6d6 503c
00000260: 17a2 e3bc 6ff3 a13c 5db5 c93d b803 bc3d
00000270: cb96 fe3c 45a2 763c 4042 473d a052 aabd
00000280: 47d5 2cbb 20e3 923c 1f37 c9bd 4161 dabd
00000290: f642 b3bd 23e3 a0bb f28a 1c3d 1fa6 bf3c
000002a0: e1ac b53d 244c 563d 74ef 633d 3d9a bebc
000002b0: 0948 273d 7711 033c bcdd 023d c13c 913c
000002c0: cfa0 c03c 32a4 983d ecc4 543d 2d4e 8dbc
000002d0: 1361 b4bc bb64 18bb ab51 773d 14c2 70bd
000002e0: fad8 2c3d 63b6 9e3d 7a1a e4bc a0ce d6bc
000002f0: 9e86 9c3d 8be9 a1bd 6eee 24bb a598 acba
00000300: d156 11bd 3fda 8ebc 4ae6 0fbd dbcb b0bd
00000310: 4840 2bbd d680 54bd 5578 f0bc 62a6 93bd
00000320: d2ff 80bc ec05 bebd 3390 8fbc c140 e53c
00000330: 5f4e f6bc 84b5 3a3c 2b40 143d 64e3 a73d
00000340: 1d9d a73d 7cf1 9e3d fbf7 a73d 18cb 843d
00000350: e3ec 873d 6563 be3c 7701 32bc 646d 503c
00000360: 3d79 30bc 53cf ca3d 6b8f 973d 72a3 413d
00000370: 9a9e 223e 7e83 d93d 4c4e c13d e238 463d
00000380: 64a5 653c 1b7f 9fbd 5f29 21bd 9d34 ba3d
00000390: 6dc1 adbb e6a7 a03d b14f be3d 9c1b 9c3d
000003a0: 0193 833d a5d9 b73c 6a1a 383e f340 e93d
000003b0: 5b22 ad3d 5797 0d3e b5e3 2f3e a02f 4e3c
000003c0: 4ea9 843d b65f 4b3d 723c 17bd 2361 f0bc
000003d0: 0ee0 94bd adcd 29bd cdfb e1bd 8f54 9abd
000003e0: ff76 c9bc 76df 9fbd 8b1f 26bc 2ed8 62bd
000003f0: 5972 b93d 6f58 bb3d c034 a33d ce51 07bb
0.088855386 0.062738195 -0.0012925846 0.05201185 -0.015798725 0.058266856 0.007537697 -0.020109974
0.035061426 -0.07992628 -0.10161427 -0.048391882 -0.11503722 -0.053177055 0.03320872 0.0077126543
-0.07597817 -0.0058046593 -0.10225945 -0.08999818 -0.02408321 0.022044629 0.025717404 0.03994402
-0.02132894 0.049408138 0.056786235 0.025407618 -0.070430845 -0.03224786 0.03927528 0.084501274
0.08329004 0.083102845 0.09518291 0.03165299 -0.018038657 0.0019120963 -0.05968781 0.02703388
0.017973326 0.019093417 -0.03822714 0.0018024672 -0.01459704 0.14880116 0.08579147 -0.010905856
0.116544135 -0.02039815 -0.012628648 0.05713471 0.051261105 -0.02322775 0.04429143 0.024958765
0.06517784 0.007612553 0.068094425 0.03711472 -0.0004115039 0.07492785 0.022581566 -0.08247741
-0.07323538 -0.063806824 -0.090485945 -0.04039394 0.016098734 -0.06448163 -0.027707255 -0.040094715
-0.026749164 -0.05315832 0.04994216 -0.037987888 -0.019895691 0.06190754 -0.022177948 -0.029807443
0.08457139 0.0014004553 -0.029022407 0.016797489 0.025961388 -0.0057923007 -0.00014136189 -0.002259635
0.01925659 0.028671775 -0.07386491 0.03948201 0.0052860226 0.04747792 -0.036207087 0.0026411458
0.052992415 -0.032160334 0.005719311 -0.06439442 -0.01874662 -0.025136152 -0.031114869 -0.08520631
0.016410662 -0.042676535 0.045640115 0.010893996 -0.037500042 -0.10713316 -0.048853684 -0.1239509
-0.046936985 -0.06565939 -0.040449027 -0.04779839 -0.05686582 0.040402196 -0.036315594 -0.022631837
0.002207603 -0.055721898 0.023042671 -0.02164142 -0.0010423862 0.004154664 -0.08348819 -0.07960547
-0.001959198 -0.053934373 -0.07729805 0.06625501 0.00038220902 -0.03257369 -0.0028449616 0.08946385
0.03495474 0.10507626 0.15598154 0.09442699 0.17359789 0.13747527 0.15646777 0.13617346
-0.045190938 -0.0023690232 -0.032123644 0.08964915 0.018801725 0.02500233 0.105442494 0.0127465185
-0.027787251 0.019769398 0.098490454 0.09180397 0.031077763 0.0150533365 0.048647165 -0.08316541
-0.002637224 0.017930567 -0.09824967 -0.10663081 -0.08753006 -0.0049098893 0.038218446 0.023394642
0.08870865 0.052318707 0.055648282 -0.023266906 0.040840182 0.007999769 0.031949744 0.017729165
0.02351418 0.07453193 0.05194561 -0.017249191 -0.022018945 -0.00232534 0.06038062 -0.058778837
0.042199112 0.07749631 -0.027844656 -0.026221573 0.07642864 -0.07905873 -0.002516653 -0.001316805
-0.035483185 -0.017438052 -0.03513173 -0.08632632 -0.04180935 -0.05188068 -0.029354254 -0.072094694
-0.015746985 -0.09278473 -0.017524814 0.027984979 -0.030066667 0.011395816 0.036194008 0.08197668
0.08184264 0.07760903 0.082015954 0.064840496 0.066369794 0.023240754 -0.010864607 0.012721393
-0.010771093 0.09902825 0.07400402 0.047275014 0.15880814 0.10620783 0.09438762 0.04839409
0.014016483 -0.07787915 -0.039346095 0.090920664 -0.005302599 0.07844524 0.09292544 0.076224536
0.06424523 0.022442648 0.17978826 0.11389341 0.084538184 0.13827263 0.17176707 0.012584597
0.06477605 0.049651824 -0.03692288 -0.029343193 -0.072692975 -0.041455913 -0.11034355 -0.075356595
-0.024592875 -0.07806294 -0.010139356 -0.055381946 0.09055013 0.09147727 0.07969046 -0.0020648125

conv_block_2.2.bias f4 [40]
00000000: ffc8 d0ba aec6 243c e393 e03d de3f 2a3d
00000010: f7b9 463d cf68 833d 7d2c 673d 9f69 94bc
00000020: 6fef 04bc fd25 663c 4742 8a3d e1bf acbd
00000030: ad3c a13c 2414 db3b 2254 74bc 04c6 ab3c
00000040: d5af f23d 7e2e d13d 64ce 913d 357c c93c
00000050: 2a45 67bd 2ad1 91bd dbc4 4e3d 494a 413d
00000060: cf34 4f3d e387 afbd d096 fb3b 12ff 573d
00000070: bc79 19bd dfd0 913d 2187 2dbd 44ab 423d
00000080: b43a acbd f614 f63d 638e 55bd a9bd 38bd
00000090: b71f 173d 8f2d d03d c63c af3c bc06 993d
-0.0015929042 0.010057135 0.10965707 0.041564815 0.048517194 0.06416475 0.05643891 -0.01811677
-0.008113726 0.014047143 0.06750923 -0.084350355 0.019682253 0.0066857506 -0.014912637 0.020968445
0.118499435 0.10213946 0.07119444 0.02459536 -0.056462444 -0.07119973 0.050480705 0.047189984
0.05058747 -0.0857084 0.0076778904 0.05273349 -0.03746961 0.07119917 -0.042365197 0.047526613
-0.08409634 0.12015717 -0.052137744 -0.04510275 0.03689548 0.101649396 0.021391284 0.074719876

conv_block_2.4.weight f4 [40]
00000000: c02b 7c3f 4ea9 863f 6dd2 8a3f 7a6c 823f
00000010: 85e3 7a3f 931e 773f 2d78 833f 2dfb 753f
00000020: c9c3 853f c309 823f f5f6 7f3f ad14 803f
00000030: 3728 703f 6372 5f3f 36b6 823f 2c8e 693f
00000040: 9803 7e3f 3012 7d3f b0dd 663f fe0d 693f
00000050: 7723 7f3f 33bc 803f e0fa 753f 0a2c 663f
00000060: b862 683f 7cfe 793f c72e 943f bbc7 533f
00000070: c919 763f 10dc 6d3f 9c5d 713f 677f 673f
00000080: d2cd 503f 2656 6a3f 94d2 8c3f 5088 6e3f
00000090: 344c 8d3f 94ab 7c3f 63f5 813f 4bf6 763f
0.9850426 1.0520418 1.0845467 1.0189354 0.9800342 0.9653103 1.027105 0.9608639
1.0450374 1.0159229 0.999862 1.000631 0.93811363 0.87283915 1.0211856 0.9123256
0.99224234 0.98855877 0.9018202 0.91036975 0.9966349 1.0057434 0.9608593 0.8991095
0.9077563 0.9765394 1.1576775 0.8272664 0.96133095 0.92913914 0.9428346 0.90428776
0.81564057 0.915377 1.1001763 0.93176746 1.103888 0.9869931 1.0153011 0.96469563

conv_block_2.4.bias f4 [40]
00000000: f318 84bd a229 f8bb 51e2 e5bd f8a7 71ba
00000010: 2786 383d b548 3bbd 31ad 88bd d16f e9bb
00000020: 517d 81bd 3975 56bd b68c 94bd ebc2 c4bc
00000030: 7a83 2e3d 4a52 cb3d 265b 83bc 4a65 af3b
00000040: 1919 393d 0218 b43c c72a b23d bb90 653d
00000050: 3d9c c7bd ed18 02bc 1248 2a3b 8080 f7bb
00000060: 58a5 943d 7870 71bd 6ec7 363d e852 093e
00000070: d8dd 3dbd fba7 843d bd4d 73bd 7662 8f3d
00000080: 915c 04bb 2c23 0f3e e620 dcbc 4ff7 e7bc
00000090: 9350 a7bc eee9 15bd 2663 8fbc cb1b c53d
-0.06450071 -0.0075733224 -0.11224807 -0.00092184497 0.045049813 -0.045723636 -0.06673659 -0.0071239253
-0.0632273 -0.052357886 -0.07253401 -0.024018725 0.042605855 0.09927805 -0.016034674 0.005352651
0.04518995 0.021984104 0.086995654 0.05604623 -0.09746597 -0.007940513 0.0025982899 -0.00755316
0.07258099 -0.05894515 0.044623785 0.13410532 -0.046354145 0.06477352 -0.05940031 0.07001202
-0.0020196775 0.13978261 -0.026871156 -0.028316168 -0.020424163 -0.036600046 -0.017503332 0.09624442

conv_block_2.4.running_mean f4 [40]
00000000: f5b4 0d41 4871 623f 3f65 4a40 0ae8 2041
00000010: d9c9 cf40 a5a0 2e41 14f8 1241 9be5 6541
00000020: fbac 2d41 de32 5041 fa2e 6c40 0ac3 1d41
00000030: 2cda 0241 0663 0041 eb52 633f 56eb be3f
00000040: 5528 0a41 b95d d540 e89e 0241 bcdf 9940
00000050: c1d2 2a40 e69f 083f c65c 1241 ce1f 1d3f
00000060: a329 8040 e4b8 9b40 95ab c93e b470 e840
00000070: a864 4841 20b8 6741 945e 2341 2d10 be40
00000080: fc04 c540 49b0 1141 c495 043f 86a6 d540
00000090: e13d d93f 597e da3f cab1 1541 0df7 8740
8.856679 0.88454103 3.1624296 10.05665 6.4933896 10.91422 9.185566 14.368556
10.854732 13.012419 3.6903672 9.860117 8.178265 8.024176 0.887984 1.4915569
8.634847 6.6676908 8.163795 4.8085613 2.6691134 0.53368986 9.14765 0.61376655
4.0050826 4.8663197 0.3938872 7.2637577 12.524574 14.482452 10.21059 5.9394746
6.1568584 9.105538 0.51791024 6.6765776 1.6972009 1.7069808 9.355906 4.2489076

conv_block_2.4.running_var f4 [40]
00000000: a5c2 0a43 040f 4a41 5cb2 2542 9569 f142
00000010: fdeb a842 babb 4d43 75f9 ed42 388d a343
00000020: f402 1943 ff4e 8843 6dd7 0042 0326 fa42
00000030: 192d b342 7cf5 0b43 28df 4a41 0149 2641
00000040: c6c0 0543 c7bc c942 55fa e742 38cf 5442
00000050: 377e 0242 c7c3 a240 a736 1243 ecd5 9e40
00000060: b59d 1342 4903 3442 5d3d 8640 f9b7 ca42
00000070: 341d 3443 84d4 8743 5a06 0c43 ea14 8d42
00000080: e337 8642 17c7 1943 7234 bf40 d027 d542
00000090: f6cf 9b41 6edf 4f41 a4ec 0643 73be 8c42
138.76033 12.628666 41.42418 120.706215 84.460915 205.7333 118.98722 327.10327
153.01154 272.61716 32.210377 125.07424 89.58808 139.95892 12.6794815 10.392823
133.75302 100.868706 115.98893 53.202362 32.623257 5.0863986 146.21349 4.9636135
36.90401 45.00321 4.1949906 101.35932 180.11407 271.66028 140.02481 70.54085
67.10915 153.7777 5.975152 106.57776 19.476543 12.992048 134.92438 70.37197

conv_block_3.0.weight f4 [40, 40, 3, 3]
00000000: 3ab3 a43d bc20 d23c 9303 9d3d 5959 16bd
00000010: d817 ae3d 3603 3ebd 0dd9 b4bb ef91 2ebd
00000020: 50b1 1dbd 3fa2 0abd 6567 17bc 13d9 633b
00000030: a9cb a23c e087 073d bd70 a0bc 6088 7a3d
00000040: 2dad 9c3b 855b 0fbe 9f32 2fbe 3ee4 52be
00000050: 0d3a a2bd 6c23 a63c 118e 82bd 07f4 34bc
00000060: 15f3 c03d 14c3 583d 3dd3 cf3d 56f3 6c3d
00000070: 9e7f ab3d ee6a 153d 8ce5 0fbd baff e2bc
00000080: 4b2a 44bd 0508 0cbe c7cd 0cbe 3896 8bbd
00000090: 3c7c abbc ae4f ecbc c3d7 87bd 4049 183e
000000a0: 4585 ab3d f2c9 80bd e78d 9e3a af94 69bc
000000b0: 7df2 24be 6386 34bd d3a6 ccbd 50a9 4fbd
000000c0: f988 92bd 540a 91bd 3b1a 893c 8358 43bc
000000d0: 0e2e 243d 60ee 043e cbd2 583c 99a6 1f3d
000000e0: c8dd 9f3d 932a 72bd 3c64 cfbd a5fa 17bd
000000f0: 15b3 cbbd 8e85 dcbd 9d7b eebd 20d0 8bbd
00000100: 2f93 f4bd f374 47bd 3bc0 f03a 46ef abbc
00000110: 5c1b 03bd 372e 853d 9480 6f3d 5e51 8b3d
00000120: 1e7c b23d 6aaf c73d 7dd7 8e3d 8ccb 0ebd
00000130: 181b bebd 1519 bcbd 72c6 dabd 3289 85bd
00000140: ea3e a1bd 3d63 abbc c43e e5bd e061 b8bd
00000150: 5cdb 29bd 070c 8bbd 55a5 0c3d 0b7d 6e3d
00000160: 8c78 743d f648 023d d688 333d 6efa c63c
00000170: 6864 f2bc 322f 05bd 82a3 943d 5d3a 883d
00000180: 6e88 b5bd f8e0 c43b 0a1d 32bd bcf0 cc3d
00000190: b546 003e b181 c03d cad8 2ebd ac4f 15be
000001a0: a389 42bd 328c 26bd ebae d03b d6ef 43bd
000001b0: e76a 1bbd afeb bcbd e7fe e3bd 4849 ff3d
000001c0: 9eb2 a83d 1942 003d d314 28bd a930 c83d
000001d0: 39fb 81bc 9cee 88bd 97c7 64bd 9da5 60bc
000001e0: e7cf d43b 9876 af3d 88c4 ba3c 4857 9f3d
000001f0: 8d8c b53d b148 c13d b4b6 af3c 0cda 41bd
00000200: 9bf2 0c3d 8bf5 5f3c 2a43 8dbd 57c1 243a
00000210: 9f12 403c 4134 163e bc0e f43d 76cd 11bd
00000220: 1fb5 bb3d ab4e 97bc 7c6d 89bd 1bdc 91bd
00000230: 1aba 39bd 0b58 3a3b 3b2a cd3c aa3b d83b
00000240: bcb0 553d a4eb bcbb 7d54 d9bb 3190 64bc
00000250: c4b3 d83d 2bc1 983c 830b ecbc 4ce0 12bd
00000260: a7c0 a5bd 271e 353d e960 b83d 1c03 eb3b
00000270: 1f14 ccba 75a6 173e e17c 893d 3276 173c
00000280: 66b7 2ebd 21ba 01bd 1bb4 efbc 534f 90bc
00000290: a9d0 cfbc 2346 983c 00f9 483c 9675 d73c
000002a0: 6014 ef3c abac 963d d40a f03c a293 b5bb
000002b0: bf2b f13c fdca 8d3d 5223 45bd 91d7 273d
000002c0: 8fb8 433c 465f 09bc d50c a13d 0410 f43c
000002d0: 1be1 0c3e d945 303d 0183 f7bc 2a67 07bd
000002e0: a031 ad3d 66b4 d6bc 378b 84bd ab5c dbbc
000002f0: 049f 01bd de26 443c 5162 3c3d 367e db3d
00000300: 90ab 813d a115 003d ca94 2ebc c2f5 c3bc
00000310: 29d8 1dbd 9cc7 bdbc eb3f 0ebd 6c6e 6fbd
00000320: c525 d5bd c118 a4bc 9434 de3d 3777 d13b
00000330: f3aa 453d 9f43 9e3d 97ee 513d e827 75ba
00000340: dcff 353d 15f4 823d 207c 50bd 93fb b7bd
00000350: 076f 9ebd ef13 d1bc 18dd 20bd 3e86 a7bd
00000360: 3730 2abd 2029 b13b 48eb 233d 4bc1 7cbc
00000370: 8629 48bd 1e28 97bd 8cc4 ea3b 259b ccbc
00000380: 67a2 08bc 751c 303d d944 b53d a678 c63d
00000390: 98c4 21bd ee1c 0dbe 684b b1bc 934e 85bb
000003a0: d9b6 bcbd 14e6 f03c f83c b33c 65ad b13d
000003b0: 2509 34bd ddca 2abd 1662 c93d 67cd 50bd
000003c0: 2f37 dfbd 7e7e f9bd 8258 ccbd a85f 2db9
000003d0: dd4f 85bc e36f 63bd 4505 e23d 3065 ef3d
000003e0: b1a8 9d3d 068d 7cbb 8b13 073e 8930 643c
000003f0: 8a9a 363d a64b 353e c708 0e3e a633 dcbb
0.08041997 0.025650375 0.07666697 -0.036706302 0.085006416 -0.04638978 -0.0055190385 -0.042619642
-0.038499177 -0.033846136 -0.00924096 0.0034766837 0.019872503 0.033088565 -0.019585008 0.061165214
0.0047813863 -0.13999756 -0.17109154 -0.2059488 -0.079212286 0.020280562 -0.06374753 -0.011044509
0.09421364 0.052920416 0.101477124 0.05784925 0.083739504 0.03647893 -0.035131022 -0.02770983
-0.047891896 -0.13674934 -0.13750373 -0.06815761 -0.020933263 -0.028846588 -0.0663295 0.14871693
0.083750285 -0.06288518 0.0012096734 -0.01425664 -0.16108127 -0.044073474 -0.09992757 -0.05069858
-0.07155032 -0.07082048 0.01673614 -0.011922958 0.040082984 0.12981558 0.013233851 0.03897724
0.07805973 -0.059122633 -0.1012654 -0.037104268 -0.099462666 -0.10767661 -0.11644671 -0.06826806
-0.119421355 -0.048695516 0.0018367836 -0.020988118 -0.032008514 0.065029554 0.05847223 0.06802629
0.0871508 0.097502545 0.06974695 -0.034862086 -0.092825115 -0.091844715 -0.10682382 -0.065203086
-0.07873328 -0.020921344 -0.11193612 -0.09003043 -0.041468963 -0.067894034 0.03433736 0.05822472
0.059685275 0.031807862 0.04383167 0.024289336 -0.029588893 -0.032515712 0.07257749 0.06651757
-0.088639125 0.0060082637 -0.043484725 0.10006854 0.12526973 0.09399737 -0.042687215 -0.14581174
-0.04749454 -0.040661044 0.006368508 -0.047836147 -0.037943747 -0.092246406 -0.11132603 0.12465149
0.082371935 0.031313036 -0.041035485 0.09774906 -0.015866863 -0.06686136 -0.055854406 -0.01371136
0.0064945105 0.08567542 0.022798792 0.077803195 0.088646986 0.09437693 0.021449424 -0.047327086
0.034411054 0.013669382 -0.06897576 0.00062849134 0.01172319 0.14668371 0.11916873 -0.035596333
0.091654055 -0.018470129 -0.067103356 -0.0712206 -0.045343496 0.0028433825 0.025044551 0.0065989094
0.0521705 -0.0057653952 -0.0066323862 -0.013950394 0.105811626 0.018646797 -0.028814083 -0.035858437
-0.08093386 0.04421821 0.09002859 0.0071720015 -0.0015569961 0.14809592 0.06713272 0.009244489
-0.04265537 -0.031671647 -0.029260686 -0.01761595 -0.025368052 0.018588131 0.0122663975 0.026301187
0.02918452 0.073571526 0.029302038 -0.005541281 0.029439805 0.069234826 -0.048129387 0.040977065
0.011945858 -0.008384531 0.07863776 0.029792793 0.13757746 0.043035362 -0.030213835 -0.03305737
0.08456731 -0.026209068 -0.064718656 -0.026777586 -0.03164579 0.011972157 0.0459922 0.10717432
0.06331551 0.031270627 -0.010655591 -0.023920897 -0.038536225 -0.02316647 -0.034728926 -0.058454916
-0.104075946 -0.020031335 0.10849872 0.0063923853 0.048258733 0.077277415 0.051252928 -0.0009351955
0.04443346 0.06394211 -0.050899625 -0.08983531 -0.077360205 -0.0255222 -0.03927335 -0.081799015
-0.041549888 0.005406514 0.040019304 -0.015426944 -0.048867725 -0.073806986 0.0071645435 -0.024976322
-0.008339501 0.04299589 0.08851022 0.096909806 -0.039494127 -0.13780567 -0.021642402 -0.0040682047
-0.09214563 0.029406585 0.021879658 0.086756505 -0.043954033 -0.04169737 0.098331615 -0.050977137
-0.10899197 -0.121823296 -0.09977819 -0.000165342 -0.016273433 -0.055526625 0.11036161 0.11689222
0.07698191 -0.0038536205 0.13191049 0.013927587 0.044580974 0.17704639 0.13870536 -0.006720024

conv_block_3.0.bias f4 [40]
00000000: 0bb2 593e 34ca 203e 60b9 9b3d 32bf 9f3d
00000010: 50f3 08be fd5e 7cb9 769d ab3d 789b c43a
00000020: 6f11 d93d ee77 503c e218 bf3d 0aa2 913d
00000030: 10be af3d c0ac fd3d f2c0 cfbc db78 8e3d
00000040: 4bba c5bd 163c 663e 2f83 c3bd db9d 9e3d
00000050: f712 023d 4cf8 a03d 3519 793d 29f3 58bd
00000060: aa5e 8cbd f8f5 7d3e 1a7c e8bb 5a96 183e
00000070: 554b e6bd a839 643c e7da 4bbd dd4e 823c
00000080: 21bf d13d 8482 90bd c37e c2bc 9dad debc
00000090: a431 893d da0b 5fbd e186 84bd 15a3 47bd
0.21259324 0.15702134 0.07603717 0.078001395 -0.13374066 -0.00024067979 0.08379643 0.0014999947
0.10599028 0.012723906 0.09330918 0.071109846 0.085811734 0.12386465 -0.025360558 0.06956645
-0.09654673 0.22483858 -0.09546506 0.07744952 0.031756368 0.07859859 0.060815055 -0.05296627
-0.06853993 0.24800861 -0.007094872 0.14901105 -0.11244837 0.013929762 -0.04976931 0.015906746
0.10241533 -0.07056144 -0.023742085 -0.027182395 0.06698921 -0.054454662 -0.064710386 -0.04873951
