disease_model_state_3_test.pth (torch, 981627 bytes, 50 tensors)

conv_block_1.0.weight f4 [40, 3, 3, 3]
000000 dd 91 ee 3d 96 30 16 3e 04 3b 97 bd 03 3a 34 3e
       0.11648915 0.14666972 -0.07384303 0.17600255
000010 9c be 98 bc ee 47 43 3d 74 ff 00 be 57 8e d5 3d
       -0.018645577 0.04767602 -0.12597448 0.1042754
000020 b3 e7 1c 3e 12 db 4e be 18 c8 fa 3d f4 3b eb bc
       0.15322761 -0.20200756 0.12245196 -0.028715111
000030 2f e3 ef 3d 7f a9 b9 3c 7d 75 91 3d ad f2 b5 bd
       0.11713254 0.02266383 0.07102487 -0.08884177
000040 41 3c db 3d db 09 c4 bc bd 81 02 be 6b 64 83 3c
       0.10704852 -0.02393048 -0.12744804 0.016039094
000050 c9 0c 0e be b1 7f 3d bd 21 77 bf bd a1 13 c8 3d
       -0.13872065 -0.046264354 -0.09348894 0.09769369
000060 ed c6 4f be bc 33 05 be 88 1f d6 bd 66 01 54 be
       -0.20290728 -0.13008016 -0.10455233 -0.20703658
000070 12 1e 6f bd 5e 96 86 be a6 40 c8 3d 4e a5 71 be
       -0.058378287 -0.26286596 0.09777956 -0.23598215
000080 03 96 bb 3d 58 45 11 bd 29 1f fb bd 82 91 a0 3d
       0.09159472 -0.035466522 -0.12261803 0.078402534
000090 4a 75 39 3d 99 67 47 3e 2c 46 72 3d d6 7a 82 bc
       0.04527787 0.19473113 0.059148952 -0.015927713
0000a0 c6 b3 e1 3d 18 14 53 3c df 6b f9 3d 99 7d 6d 3e
       0.11020617 0.012883209 0.12178778 0.23192443
0000b0 90 36 3c 3e 11 f2 b8 bd cd b9 e1 3d 4f 46 ae 3c
       0.18380189 -0.090305455 0.11021767 0.02127376
0000c0 43 46 c2 3d 02 37 f9 bd 28 91 47 be 73 ee a8 bd
       0.094860576 -0.12168695 -0.19488966 -0.082486056
0000d0 66 df 1b be b0 7e 20 3e 88 b6 0e 3e c2 37 a9 3d
       -0.15221938 0.15673327 0.13936818 0.08262588
0000e0 53 fc 92 bd 27 76 a6 3d 0e 32 1d 3e 73 f1 87 be
       -0.07177033 0.081280045 0.15351126 -0.265514
0000f0 1e 80 d8 3d d6 8b 87 bd ed b8 80 3c b7 be 19 bd
       0.105713114 -0.066184685 0.01571318 -0.037535395
000100 d6 8c e2 3c 6a 56 3a be 9b ed 56 3e f5 24 fc bd
       0.027655046 -0.18197027 0.20989077 -0.123117365
000110 89 5b 71 be 0c 5c 40 bc c5 40 89 3e 46 23 89 3d
       -0.23570074 -0.011740696 0.26807228 0.06696181
000120 a4 ea 6c 3e 72 b9 1a be 81 8d 81 be 2f fe c4 bd
       0.23136383 -0.15109804 -0.2530327 -0.09618794
000130 72 9e e8 bd b8 63 e5 3c 29 9d 10 3e 54 23 73 3e
       -0.11358346 0.028001651 0.14122452 0.23743945
000140 41 67 8f bd 50 6d 98 bd d0 56 1c 3e 7b fa 93 bc
       -0.07002116 -0.07442725 0.15267491 -0.018063774
000150 30 2e 38 3e 39 63 b2 bc 1e 8c 0d 3e 80 19 ec bd
       0.17986369 -0.021775829 0.13822982 -0.11528301
000160 a8 7f e7 bd 4c d2 66 3d ae d9 ba 3d 34 cf 04 bc
       -0.11303645 0.0563529 0.0912355 -0.008106042
000170 83 23 23 3e df 1b 39 3e da bc 03 be 11 5d c2 bd
       0.15931515 0.18077038 -0.1286501 -0.09490407
000180 72 32 3f 3e 85 cf d6 bd 50 8f d0 bd 2e a3 42 be
       0.18671587 -0.104888 -0.10183585 -0.1900756
000190 3b 34 03 be 53 2c 28 3d e6 e2 ee bc 3f a6 47 be
       -0.12812893 0.041057896 -0.029160928 -0.19497012
0001a0 83 8e 4e bd 40 e4 28 be 1f da 88 be 70 52 45 be
       -0.05042888 -0.1649332 -0.26728913 -0.19269729
0001b0 06 9f 85 be 61 05 71 be 45 f4 e5 3d 57 5e 6d bd
       -0.26097888 -0.23537208 0.11228231 -0.057951298
0001c0 49 47 8d bd e3 ea 8a be e4 cb 29 be 94 24 0e be
       -0.06898362 -0.2713233 -0.16581684 -0.13881141
0001d0 78 e4 54 bc 6f 43 1f be 72 9d b6 bd 3a e4 c9 bd
       -0.012993924 -0.15553068 -0.08916749 -0.09857984
0001e0 36 16 c1 3b d1 94 bd bd 04 27 7f bb 7e 57 85 bd
       0.0058925403 -0.092569 -0.0038933167 -0.065108284
0001f0 02 88 c8 bd 1e 9f 4d bd f2 04 4b bc b7 05 f0 bd
       -0.097915664 -0.050200574 -0.012391316 -0.1171984
000200 c3 8d 5a 3e 0d 38 9e b9 df 30 38 3e 83 f9 c9 3d
       0.2134314 -0.0003017787 0.17987393 0.09862044
000210 d4 1a a7 bd d6 14 39 3e 2f 6e 80 3c 25 b2 fc bd
       -0.08159414 0.18074355 0.01567754 -0.12338666
000220 cd fe 6c be 5c 33 90 be 6c 2b 65 3d bf eb 60 bd
       -0.23144074 -0.28164184 0.055949613 -0.054912325
000230 4c 10 29 3d 5b 33 1a be 49 c7 16 3e 0b e9 24 be
       0.041275308 -0.15058653 0.14724459 -0.16104524
000240 33 53 aa bc 17 94 4e 3d 85 6b bb 3d cd 2e 5d 3e
       -0.020791626 0.0504342 0.09151367 0.21599884
000250 60 76 77 3e 45 a9 c8 bd 75 d4 dd 3d db 68 3c bc
       0.2416625 -0.097979106 0.108315386 -0.011499609
000260 a8 03 fe 3c 1d a1 29 be 9d 66 1d 3e df 8e 37 be
       0.031007603 -0.16565366 0.15371175 -0.17925595
000270 3b 94 da 3d a3 fa 97 3d 84 d5 69 3d 50 e8 e5 bd
       0.10672804 0.07420852 0.05708839 -0.11225951
000280 47 1e 36 3e 52 23 f8 3c a8 43 05 3e b7 19 b6 bd
       0.17784987 0.03029028 0.1301409 -0.088916235
000290 c7 20 17 3e c8 74 bd 3c b8 42 e3 bd 3d e6 e1 3d
       0.14758597 0.023126975 -0.1109671 0.110302426
0002a0 13 c4 b0 3d 4e aa 1f be 1f 18 34 be b2 eb c7 3d
       0.08631148 -0.1559231 -0.17587326 0.09761752
0002b0 ea 23 47 3e 68 f9 f6 3c a2 26 8f bd a8 09 c8 bd
       0.19447294 0.030148223 -0.069897905 -0.09767467
0002c0 94 26 52 be 62 50 c7 3d 02 8b b2 3d 3a 4c 88 be
       -0.20522529 0.09732129 0.0871792 -0.26620656
0002d0 f9 82 65 3d 48 28 e4 3d 63 d8 66 3d 72 79 a5 bd
       0.05603311 0.111404955 0.056358706 -0.080798045
0002e0 54 16 52 3d a2 34 41 3d f6 c9 72 3d 47 97 c4 bd
       0.051290825 0.047169335 0.059274636 -0.09599166
0002f0 4a 96 ef bd e4 76 d1 3d 9a 51 ad bb 99 b3 3d be
       -0.11698587 0.10227755 -0.0052892687 -0.18525542
000300 67 50 6d 3e 53 03 69 3e 12 e8 ea bd 83 62 8c ba
       0.23175202 0.22755174 -0.11470045 -0.0010710511
000310 91 d9 15 bc 71 c0 28 be 3b 40 01 3e c8 b7 e1 3d
       -0.00914611 -0.1647966 0.12622158 0.110213816
000320 e7 4e 70 be d8 0a ec 3c 3c 1d 7c 3e cc 1b 25 3d
       -0.23467599 0.028813764 0.24620527 0.040309712
000330 68 91 42 3c 6b b1 f1 bd e3 52 6e be 08 3f 0f be
       0.011875488 -0.11801418 -0.23273806 -0.13988888
000340 b8 f5 ec bc 73 a3 f9 3c a8 63 30 3e a8 d0 13 3e
       -0.028925762 0.030473446 0.17225516 0.14435065
000350 2d 4c 40 be b7 0a ed bd 50 2f 03 bd 9c e8 ef 3d
       -0.18779059 -0.11574309 -0.032027543 0.117142886
000360 42 34 4f 3d 40 ba 4f bd e5 38 9a 3d ba 30 ab bd
       0.050586946 -0.05071473 0.07530383 -0.08358903
000370 92 09 36 be 02 10 ce 3d 25 b0 e5 bd a4 e1 c1 bd
       -0.17777088 0.10061647 -0.112152375 -0.09466866
000380 91 30 6d be 82 c5 5d 3e a3 2a 5e 3e 56 1e 0b 3e
       -0.23163058 0.21657375 0.21695952 0.13585791
000390 5f 83 96 bd fb ad 21 be 9a 73 f3 bd 63 ae 3a 3e
       -0.07349276 -0.15789025 -0.118872836 0.18230586
0003a0 e2 04 e5 3d 76 69 44 3e 3f 25 dc 3d 1d 69 fb 3c
       0.11182572 0.19180855 0.10749292 0.03068977
0003b0 e9 e3 b0 bc a0 88 2f be ba 83 6b be ee 7a 6e be
       -0.021593051 -0.17141962 -0.22999468 -0.23289081
0003c0 18 3c 10 3d b7 df 28 be 95 7e c5 bd 5c 74 45 be
       0.03521356 -0.1649159 -0.09643284 -0.19282669
0003d0 80 b2 1f be 3c b9 8c be 1d a3 2e be 7c 2c 16 bc
       -0.15595436 -0.27485073 -0.1705441 -0.009165879
0003e0 b4 b3 1f be bf 5e f3 3d 5d 8a 8e bd 68 70 33 be
       -0.15595895 0.11883306 -0.069599845 -0.17523348
0003f0 0f 81 d5 3b e2 fc 5d bd 11 72 ff bc 86 a8 e8 bd
       0.006515629 -0.054196246 -0.03118232 -0.11360268

conv_block_1.0.bias f4 [40]
000000 c7 0f 60 be 60 d2 16 be 45 80 18 bd 0b 26 70 be
       -0.21881019 -0.14728689 -0.037231702 -0.23452012
000010 6e 5e 0b bd 72 2d 2e bd ef 82 eb 3c c2 6b b1 3d
       -0.034025602 -0.04252381 0.028748957 0.08663131
000020 61 91 8b bd ad 78 7f be 3c e7 02 bd c4 ad f6 3c
       -0.06814838 -0.24948378 -0.031958804 0.030112155
000030 65 70 87 bd a4 38 4f 3e 8c 01 07 3e ab 35 46 bc
       -0.066132344 0.2023645 0.13184184 -0.012097756
000040 f3 c2 1b be 16 e4 9b 3e f4 3b 14 3d fe 28 b5 3d
       -0.15211086 0.30447453 0.03618999 0.08845709
000050 54 37 fc bd d4 3b 46 3e 1e 3c 08 be 23 f6 32 3e
       -0.123152405 0.1935876 -0.13304183 0.17476706
000060 46 a8 84 bd 6c d8 8b 3d 5b 4b f3 3c 53 c5 15 bd
       -0.06477408 0.068283886 0.029699018 -0.036565136
000070 05 26 9e 3c 5a 23 19 3e 72 36 86 bd 53 e9 7e be
       0.019305239 0.14954892 -0.06553353 -0.24893694
000080 5f f3 6d bd 4c 15 a7 3d c7 29 14 bd 3a 16 85 bd
       -0.058093425 0.08158359 -0.036172654 -0.0649838
000090 76 0b 69 bd 9a 0f 50 3d 90 67 1e 3e c4 47 6d 3d
       -0.056895696 0.05079613 0.15469193 0.05792977

conv_block_1.2.weight f4 [40, 40, 3, 3]
000000 2f 72 43 3a f4 c5 86 bd 07 74 a4 bc f7 0d 22 bc
       0.00074556743 -0.06580725 -0.020074857 -0.009891025
000010 0f 1b 0c ba ed ef d3 bd cd 90 92 3d 3c 0d 85 3d
       -0.0005344608 -0.103484966 0.07156525 0.06496665
000020 5b 31 92 3c d6 88 e4 3c 07 40 86 bd f0 ab 5f 3d
       0.0178458 0.02789728 -0.06555181 0.05460733
000030 50 0f 95 bc bb a1 b8 bd 50 97 f0 3c c6 76 80 bc
       -0.018195778 -0.09015223 0.029369026 -0.015681636
000040 71 1a 91 bc dd 5d 04 3d 36 18 3f bd 75 1a 06 3e
       -0.017712804 0.032316078 -0.04665395 0.1309603
000050 d3 2d ef bd 28 ca 86 bd 9a 4c 22 3e 4e b6 c8 bd
       -0.11678662 -0.06581527 0.15849534 -0.09800397
000060 fb 23 c6 bd ca 0e b2 3d 40 b4 a9 bd 54 ca bc bd
       -0.096748315 0.08694227 -0.08286333 -0.092182785
000070 87 df 80 bb d7 3c 56 3d ba 41 c3 bd 57 02 74 bc
       -0.0039328965 0.052304115 -0.09534021 -0.014893136
000080 d9 88 51 3d f2 93 a5 bc 64 7a 86 bd 32 2a 35 3d
       0.0511559 -0.020212147 -0.06566313 0.044229694
000090 c2 4a 9f 3d 80 79 bd 3d a2 77 77 3d 4e 1e c0 3d
       0.07777931 0.0925169 0.060416825 0.0938078
0000a0 e4 4c 95 3d 8f cc 19 3e c9 84 a8 3d 51 79 c7 3d
       0.07290056 0.15019439 0.08228452 0.09739936
0000b0 d4 65 80 3d 54 2c 85 3d dd 36 60 3d 6e 74 e8 bd
       0.06269422 0.065025955 0.05473982 -0.11350332
0000c0 43 2d e9 bd 12 18 f1 3c 64 a9 f6 bd 47 31 c3 bb
       -0.11385586 0.029430423 -0.120440274 -0.005956802
0000d0 cf b8 e0 3d f9 82 b2 bc 7b db d0 bc 53 21 be 3d
       0.109727494 -0.021790968 -0.025495281 0.092837
0000e0 f6 47 12 3d d4 07 4e bc 47 a0 f0 3d 86 78 2c b9
       0.03571316 -0.012575109 0.117493205 -0.00016448097
0000f0 b0 4f b0 bd 1d 75 ed 3c 6e 1b cb bd d8 96 21 bd
       -0.08608949 0.028986508 -0.09917341 -0.039450496
000100 cf 1b e5 3d 7a c8 6b be 04 a3 4b bd c9 2e 15 3e
       0.11186945 -0.23025694 -0.04971601 0.14568628
000110 a0 57 19 be 23 b6 8e bc f9 8b 2b 3e 8e 24 09 bb
       -0.14974833 -0.017420834 0.16752614 -0.002092633
000120 f6 7a 4a 3c f6 e4 e8 bc da 45 00 3d 3f 43 57 bd
       0.012358418 -0.02842949 0.031316616 -0.052554365
000130 56 05 bf bc 95 f9 01 3d 57 5b 32 bd 16 77 0c bd
       -0.023317974 0.03173216 -0.04354414 -0.034293257
000140 72 f6 bb bb 77 d0 8d bc 44 cf b7 3d d4 fc a2 3d
       -0.0057361657 -0.017311318 0.0897508 0.079583794
000150 5d 4c 90 bd 50 7e 83 3d 0f 63 57 3d 6c 79 9e 3c
       -0.07045815 0.064205766 0.052584704 0.019345008
000160 05 14 48 3e 35 47 f9 3d 4c c3 81 3c 2b dd 17 bd
       0.19538887 0.12171785 0.015840195 -0.037076157
000170 ae db 5f 3d e7 d3 22 3c fe 35 a0 bc 03 68 b8 3d
       0.054652862 0.009938217 -0.019556995 0.09004214
000180 82 15 03 bd cc dd 88 bd 06 55 02 3d e0 b2 8f bc
       -0.032002933 -0.066829294 0.031819366 -0.017541349
000190 4a 01 04 be 53 d4 0a 3d 5c 2d f6 3c b7 95 d1 bd
       -0.12891117 0.033893894 0.030050926 -0.10233634
0001a0 53 17 09 3d 9a a3 bb bb 82 af ae bb 23 5e 88 3d
       0.03346951 -0.00572629 -0.0053309808 0.0665858
0001b0 ea 60 5e 3e a7 07 37 3e d9 ce 81 3e 06 f7 71 3e
       0.21716657 0.17874013 0.25353125 0.23629388
0001c0 7b 75 7c 3e a9 bf 85 3e c3 78 5b 3e eb 86 19 3e
       0.2465419 0.26122788 0.21432786 0.14992873
0001d0 3a 27 36 3e 41 0f 8b bd 8a 2a d1 bd d6 50 71 3c
       0.17788401 -0.06790019 -0.10213192 0.014728745
0001e0 ad eb 43 bd b0 86 8f bd 96 f3 f0 bc 71 90 ad bd
       -0.04783218 -0.070081115 -0.029413026 -0.08474816
0001f0 7e aa 8d bd df d5 a1 bd f9 e9 95 bd 83 7b ba bd
       -0.069172844 -0.07902121 -0.07320017 -0.09105589
000200 6f 69 11 3d 4f 35 4b 3d 17 c3 fe bd 23 61 f3 bb
       0.03550094 0.049611386 -0.12439554 -0.007427351
000210 0b 3a c3 3d 57 f9 28 bd 77 20 d7 3c e0 49 12 3d
       0.09532555 -0.041253414 0.026260598 0.035714984
000220 09 73 91 3d 1a 94 a4 3d 61 25 72 3c 8f 67 5f 3d
       0.07102019 0.08036061 0.01477942 0.05454212
000230 ab 26 c4 3d 0e 98 ef 3c 06 a9 dc 3c 8c 39 94 3b
       0.09577688 0.02924731 0.026936065 0.0045234617
000240 87 b0 a7 3d 68 a5 22 3e c9 d2 ce bd b0 ff 20 bb
       0.08187967 0.1588341 -0.10098798 -0.0024566464
000250 68 e6 86 3d 0f 5d f2 bd 35 d5 8e bc 56 99 cd 3d
       0.06586915 -0.11834156 -0.01743565 0.10039012
000260 7b 96 62 bd e0 89 38 bb bf 1c 00 bd 49 81 fd 3c
       -0.05531929 -0.0028158352 -0.031277414 0.030945437
000270 9f cb 3c 3d 33 27 3a 3d 14 e2 8a 3c d3 2d 88 ba
       0.046092626 0.04544754 0.016953506 -0.0010389633
000280 68 ab 1d bd ef 6b cd bc e3 f6 dd bb 5c 2d d0 bd
       -0.038493544 -0.02507588 -0.006773816 -0.101649016
000290 41 b1 8d bc 36 f7 af 3d e6 02 94 bc ec e5 2e bd
       -0.017296435 0.085920736 -0.018067788 -0.04269974
0002a0 b5 b6 bc 3b 47 dc a2 bd d9 8c 26 3b 6f 32 80 3c
       0.005759085 -0.07952171 0.0025413542 0.015649049
0002b0 9d 51 23 bd 73 b7 0c 3c 4c 89 69 3a 22 7d 9a bd
       -0.039872754 0.00858866 0.00089087035 -0.075433984
0002c0 33 c4 26 bd 8b fa f2 bc b7 ae 96 bd 11 86 28 3d
       -0.040714454 -0.029660484 -0.07357543 0.04114348
0002d0 8c 79 2e 3d 08 af e6 3d 95 d0 d4 3c 57 13 88 3d
       0.042596385 0.11263853 0.025978366 0.06644314
0002e0 8e 4a 5f 3d 51 e0 fd ba 9f e4 d2 3d 71 b4 22 3d
       0.05451446 -0.001936922 0.10297512 0.039722864
0002f0 c5 25 43 bc fb 3b 48 3b 02 a4 25 3e 36 63 c1 3d
       -0.01191086 0.003055333 0.16175845 0.09442751
000300 88 c0 4c 3d 20 60 43 3e bc 8d 49 3e 1d 02 5b 3d
       0.0499883 0.19079638 0.19682974 0.053468812
000310 fe f3 54 3e 15 78 1c 3e b3 45 a1 bd 25 fe ac 3c
       0.207962 0.15280183 -0.07874622 0.02111728
000320 41 8e fb bc 44 98 9d bd 6c b8 e9 bc d1 81 86 bc
       -0.03070748 -0.07695058 -0.028530322 -0.016419323
000330 fc ed 9b bc 22 65 88 bb 10 75 7f 3d 34 b4 d3 3d
       -0.019034378 -0.0041624466 0.0623675 0.103371054
000340 9c f9 06 3d d7 f6 02 3e 01 26 43 3d 0d 81 f2 3d
       0.03295289 0.12789474 0.047643665 0.11841021
000350 a8 ff 55 3e 76 a9 cd 3d 8a 59 3e 3d 38 09 2d 3e
       0.20898306 0.10042088 0.04647211 0.16898048
000360 3c a6 a7 3c 26 4a 4c bb 2e f6 c0 3d 31 77 d6 bc
       0.020465009 -0.0031172126 0.09421955 -0.026179882
000370 ca c5 4e bd dd 69 a8 3b 48 ee 01 3d 24 af 0b bd
       -0.050481595 0.005139573 0.031721383 -0.034102574
000380 83 cd bc b9 20 5e 8d 39 b8 f5 96 3d 4a 76 8e 3c
       -0.00036011272 0.00026963744 0.07371086 0.017390389
000390 d7 53 dd bb 6d b2 ed 3d 8e 7c cd 3c 66 bf 78 bc
       -0.0067543793 0.11606298 0.025083806 -0.015182352
0003a0 bd 53 db 3d 97 68 78 b9 0f 1b fe 3c be cd 21 3d
       0.10709331 -0.00023690086 0.031018762 0.03950285
0003b0 6a 85 65 bd f1 6f 52 3d 5d 2d 61 3d 89 36 38 bd
       -0.056035437 0.051376287 0.054974902 -0.044973884
0003c0 25 70 08 bd 0e e9 90 3d f0 cf 62 bd 63 ae d1 3c
       -0.033310074 0.07075702 -0.055374086 0.02559585
0003d0 dd 02 32 3c 49 66 31 bd 58 41 a4 bc 46 ad 8b bd
       0.0108649405 -0.043310437 -0.02005069 -0.06820159
0003e0 bf 9b 72 3c ec a8 8b 3d 41 60 33 bb e5 81 1c 3d
       0.014807641 0.06819329 -0.0027370604 0.038209815
0003f0 62 cb 84 bc a9 f9 a8 3d 5e 79 9f bd ee fb 77 3c
       -0.016210262 0.08250744 -0.07786821 0.015135748

conv_block_1.2.bias f4 [40]
000000 2c 9e 0b be 69 71 b2 bd 92 a3 08 bd 96 d1 52 3e
       -0.13634557 -0.087130375 -0.033359118 0.20587763
000010 ea e4 89 3e 53 5a 68 3d c8 b5 c4 3d 27 9b 3d 3d
       0.2693246 0.056726765 0.096049845 0.046290543
000020 1f a5 2d 3e cf 6f 8a 3d 16 b9 6e bd de 34 bd 3d
       0.1695752 0.06759607 -0.05828198 0.09238599
000030 0f ef 63 be ab 68 1a 3d d4 82 04 3e 88 5e b1 3e
       -0.22259162 0.037697475 0.12940532 0.34642434
000040 d4 02 24 bb 59 70 78 3d 93 c3 08 3d 26 81 8a 3d
       -0.00250261 0.060654018 0.03338964 0.06762914
000050 9c 54 86 3d 79 37 d5 3e 1f dc a2 3e 85 8f bb 3e
       0.06559107 0.41643885 0.31808564 0.36632934
000060 d1 c5 88 3d 50 a7 04 3e 5f 48 9d bd 8d 3f 07 3e
       0.066783555 0.1295445 -0.07679819 0.13207836
000070 91 d6 04 be 26 77 25 3d 5f ee b2 bd a2 e3 a9 3e
       -0.12972476 0.040396832 -0.08736872 0.33181483
000080 f5 a9 5b bd e4 70 90 bd e2 53 a3 3d 40 3e 50 3e
       -0.05362888 -0.07052782 0.07974984 0.20336246
000090 5b 91 86 3d 6a 07 ca 3e 84 9f 08 3e f6 2a 30 bd
       0.06570693 0.3945878 0.133421 -0.04300972

conv_block_1.4.weight f4 [40]
000000 2d 12 89 3f b5 f7 80 3f f2 82 6f 3f 41 b6 73 3f
       1.0708672 1.0075594 0.9355918 0.9519997
000010 8c 4e 6f 3f 71 27 81 3f 79 67 7b 3f 7c a2 63 3f
       0.9347923 1.0090162 0.9820476 0.88919806
000020 29 df 93 3f e5 da 61 3f a0 fd 72 3f 0f 5b 83 3f
       1.1552478 0.8822463 0.9491825 1.0262164
000030 27 8f 61 3f ea 00 73 3f 65 69 82 3f 31 ac 74 3f
       0.8810906 0.9492327 1.0188414 0.95575243
000040 44 4b 75 3f f3 70 87 3f 65 ed 78 3f 0f 9c 5b 3f
       0.9581797 1.0581344 0.97237235 0.85785
000050 89 b3 6f 3f 31 9d 7d 3f af 95 83 3f 5a 2f 53 3f
       0.93633324 0.9906798 1.0280055 0.8249413
000060 e7 1d 6e 3f e6 5e 5f 3f 35 ea a0 3f 52 8f 90 3f
       0.9301438 0.8725418 1.2571474 1.1293738
000070 32 ff 67 3f 1b cc 6e 3f e6 0e 84 3f ef c7 71 3f
       0.9062377 0.9328019 1.0317047 0.944457
000080 5e cf 84 3f ca 83 7b 3f b9 a1 85 3f ee 90 6a 3f
       1.0375783 0.9824797 1.0439979 0.91627395
000090 fb 6a 74 3f 80 77 7b 3f 3e ab 6d 3f 8b fa 81 3f
       0.9547574 0.9822922 0.9283942 1.0154585

conv_block_1.4.bias f4 [40]
000000 e5 f9 43 3d 30 16 01 3d 6d 8b 90 3c 2a 85 63 3d
       0.04784574 0.0315153 0.017644608 0.055546917
000010 a2 23 d6 3c f6 93 f2 3c f0 e6 15 3b b5 eb d9 3c
       0.026140038 0.029611569 0.0022873245 0.026601652
000020 29 90 52 bd bf 42 ff 3c 38 2b 56 3d f1 e4 4a 3d
       -0.051407013 0.031159757 0.05228731 0.04953474
000030 e6 fc f0 3c 28 83 21 3b 05 e3 10 bc 01 b8 74 ba
       0.029417466 0.0024644826 -0.008843188 -0.000933528
000040 1b 6a 8e bc 10 09 3b 3d 48 5a 44 bb bf fe b6 3d
       -0.01738458 0.04566294 -0.0029961038 0.08935308
000050 65 2e e1 3c db b7 8f bc dc 76 37 bd 26 6b 62 bd
       0.027487943 -0.017543724 -0.044791088 -0.055277966
000060 66 8a 79 3d b9 b1 ca 3c 64 84 f4 3d bb 9a ff 3c
       0.060923003 0.024742948 0.11939314 0.03120171
000070 b6 4f 1d 3d 60 a8 bc 3c cf 7a 4e 3c dc 9f 28 bd
       0.038406096 0.023029506 0.012602522 -0.04116808
000080 7f 7d 12 3b e4 0e 14 3d e5 72 51 3c 26 b7 eb 3c
       0.0022352634 0.036147013 0.012783741 0.028773855
000090 59 10 1d bd 23 88 e7 bd d8 18 35 3d a0 30 6c 3c
       -0.03834567 -0.11305263 0.044213146 0.01441589

conv_block_1.4.running_mean f4 [40]
000000 17 d3 86 be b7 39 26 3e 90 ac 49 3e 67 23 4f 3f
       -0.26332924 0.16232954 0.19694734 0.80913395
000010 c8 6e ac 3f 22 35 00 3f 0b a4 0d 3f 7e cb a9 3e
       1.3471308 0.50081074 0.55328435 0.33163065
000020 ac 20 8d 3e 78 28 f1 3e 46 e4 f2 3c 91 6e 0c 3b
       0.2756399 0.47101188 0.029649865 0.0021428207
000030 99 7a 01 be 2e 3d 2d 3f 98 e6 ea 3e 93 07 cc 3f
       -0.12644424 0.6767148 0.45879054 1.5939811
000040 b6 63 3c be bf 29 8d 3e 45 1f 19 3c c7 d6 15 3f
       -0.18397412 0.27570912 0.009345834 0.5853085
000050 e0 e5 1e be 64 13 b5 3e ae d8 fc 3e 9c b8 7f 3f
       -0.15517378 0.35366356 0.49384063 0.99891067
000060 ef 45 40 be 71 ea 4a 3c 22 ba a9 3c 76 98 95 3d
       -0.18776678 0.012384997 0.020718638 0.0730447
000070 c0 84 69 3d 80 cc 46 be dc 4a 82 be 95 3c c2 3f
       0.057011366 -0.19413948 -0.25447738 1.5174738
000080 9d aa 03 be aa 1f 76 be 69 3a ed bd ad 62 c6 3e
       -0.12858053 -0.24035516 -0.115834065 0.3874716
000090 26 43 c4 3d 43 87 bc 3e 57 10 38 bd 4d 4d 48 be
       0.0958312 0.36821947 -0.044937458 -0.19560738

conv_block_1.4.running_var f4 [40]
000000 38 d4 55 3b d0 6e 16 3e 93 78 0b 3e f8 65 13 3e
       0.0032627713 0.14690709 0.13620214 0.14394367
000010 34 28 78 3e 70 ab 29 3e 8f 41 1c 3e d8 72 30 3e
       0.24234086 0.16569304 0.15259384 0.1723131
000020 bd 2d 02 3d c4 2b 3f 3e 0f 94 a9 3d 6f 48 b8 3c
       0.0317819 0.18669039 0.08280193 0.022495477
000030 1b 9d c6 3c 95 19 3a 3e 25 63 02 3e b5 c4 86 3e
       0.024244836 0.18173821 0.12733133 0.2632195
000040 a8 c8 39 3c 79 27 fa 3d f3 41 a4 3d 4a 81 94 3e
       0.011339344 0.1221456 0.08020391 0.2900489
000050 0f cd d6 3c 26 f3 54 3d 13 96 7b 3d 1d 5f 17 3e
       0.026220826 0.051989697 0.06142242 0.14782377
000060 c8 64 85 3c 0a ae c4 3c d9 ec 07 3d c1 e4 ab 3c
       0.016283408 0.02400877 0.03318486 0.020983102
000070 79 c8 da 3d ee 1a 29 3c 84 a8 83 3b 30 25 7b 3e
       0.106827684 0.010321362 0.0040178914 0.24525905
000080 61 ae 9e 3c 8e c9 95 3b 6a 42 a8 3c 96 f1 c3 3d
       0.01937026 0.0045711463 0.020539481 0.09567563
000090 6e 6b a0 3c 36 53 61 3d e5 78 5c 3c 11 b1 16 3c
       0.019582476 0.055010997 0.013456558 0.009197489

conv_block_2.0.weight f4 [40, 40, 3, 3]
000000 6b 2b 38 3e 33 77 26 3e 1c d0 cf 3d a8 e5 12 3e
       0.17985313 0.16256408 0.101471156 0.1434542
000010 9f e4 51 bd c6 d8 9e bd 72 8f 5b 3d 36 00 b8 bd
       -0.05124342 -0.0775619 0.053603597 -0.08984415
000020 ec 8e 05 be ce 4a db bd b4 11 af bd 0c e8 90 bd
       -0.13042802 -0.10707627 -0.085482985 -0.070755094
000030 7a 85 c5 bd 81 77 eb bd f7 64 30 bd 0d fb 1d be
       -0.09644599 -0.11497403 -0.043065038 -0.154278
000040 8a 43 ea bd 13 4d 4d bc 25 5a 1b bd 49 86 ae bd
       -0.11438663 -0.012530583 -0.037927765 -0.085217066
000050 7d 0c 8d bd bf 0b 47 bd e9 bb 19 bd 5c 3d 9e bb
       -0.068871476 -0.048595186 -0.03753272 -0.004829092
000060 ec 55 f2 3c 45 6f a2 3d 25 47 30 3e 91 72 86 be
       0.029581986 0.07931379 0.1721464 -0.26259282
000070 d3 87 61 be 35 42 02 be 88 24 3f be 34 9d 61 bd
       -0.22024469 -0.12720568 -0.1866628 -0.05508156
000080 ae c0 9f 3d 6f 80 0c bd d5 21 b0 3d b3 dd 6b 3e
       0.078004226 -0.03430217 0.08600203 0.2303379
000090 57 6b ba 3a 30 f2 d2 3c a0 ed f4 3c 84 93 56 3d
       0.0014222664 0.02575025 0.029898465 0.052386776
0000a0 8d 6c 79 3d c3 59 0a 3e e4 e3 dc 3c 6e ea 37 3d
       0.060894538 0.13510804 0.026964135 0.044901304
0000b0 e1 4c 09 3e 79 c0 16 be 5c 35 d5 bd 2d 47 62 bd
       0.13408233 -0.1472186 -0.10410568 -0.05524366
0000c0 a5 98 f0 bd b2 cd b0 bc 43 7d 12 3d a9 07 77 3b
       -0.11747865 -0.021582458 0.03576399 0.0037693775
0000d0 bb 4c 82 3d b6 6a 49 3e 27 ba 8a 3d 52 19 b1 3d
       0.063622914 0.19669613 0.06773787 0.086474076
0000e0 8c 22 b4 3d 13 ab c6 bc 86 5d a4 bc 72 4e 03 bd
       0.08795652 -0.024251496 -0.020064127 -0.032057233
0000f0 84 11 10 be 0a b0 1c be 74 75 02 be 57 58 cc bd
       -0.14069182 -0.15301529 -0.12740117 -0.09977787
000100 41 e7 bf bd d1 d0 d7 bd bc 78 92 bd f6 d9 8d bc
       -0.0937028 -0.105378754 -0.071519345 -0.017315846
000110 da 08 e6 3c 51 2a 8b 3c 61 ac 25 3c 59 f2 88 3d
       0.028080393 0.016987951 0.010111899 0.06686849
000120 2c 9b 01 3e 6c bc 03 3d 92 e7 5f bd 58 8c df 3c
       0.1265685 0.032162115 -0.054664202 0.0272886
000130 62 7d 5d bd af 3a 0a be a6 6c 26 3d 8c fc fc bd
       -0.054074652 -0.13498949 0.04063096 -0.12352857
000140 41 5c bc bc 2a d5 30 be 30 23 b6 bd 3d 69 8c bd
       -0.022993209 -0.17268816 -0.0889343 -0.0685601
000150 d8 ad db bd 27 e2 a2 bd 5b 6b f1 bc 15 a5 3a bd
       -0.107265174 -0.079532914 -0.029470136 -0.04556759
000160 82 ab 35 3d 44 2a f4 3d dc f6 92 bd 2a 7b 18 ba
       0.044353016 0.11922124 -0.07175991 -0.0005816693
000170 d6 fd d0 bc bb 37 80 bd ba 9d 1d bd 70 1b 57 3d
       -0.025511663 -0.0626063 -0.038480498 0.0525164
000180 12 42 2a 3c b6 9c 88 3d ee 70 b3 3d f7 f8 98 3d
       0.010391729 0.06670515 0.08761774 0.07469361
000190 16 66 ce bc 14 e3 64 bd 56 b0 78 3d e6 a0 0c be
       -0.025195163 -0.05588062 0.060715042 -0.13733253
0001a0 30 89 62 bd 7c 7a 15 3c fc 07 70 bd 51 68 0c be
       -0.055306613 0.009123441 -0.058601364 -0.13711669
0001b0 ba ef be bc 6a 85 04 bd fa 7f 45 bc af c7 67 bd
       -0.02330767 -0.032353796 -0.012054438 -0.056586917
0001c0 a2 85 42 bd af 6f 4a 3d 5f 25 77 bd 74 70 1c 3d
       -0.047490723 0.049422916 -0.060338374 0.03819318
0001d0 80 d8 38 3c 86 f0 22 be 77 e2 f6 bd 7b 62 74 bd
       0.011282086 -0.15912065 -0.120549135 -0.05966423
0001e0 e1 81 e8 bd 39 6b 65 bc ed 1e a9 3d 6f b2 e6 3c
       -0.113528974 -0.014002615 0.08257852 0.028161256
0001f0 09 c1 98 3d 4c cc 81 3e fb 86 23 3e e8 af a3 3d
       0.074586935 0.2535118 0.1596946 0.07992536
000200 ec 30 43 3d d0 60 bd 3d 2b f9 b1 3c 37 ab 96 3c
       0.047654077 0.09246981 0.021725258 0.018392188
000210 09 be b6 bd 0a 15 93 bd 2e f5 f5 bd 2e 2c 0b 3a
       -0.08922965 -0.07181747 -0.12009655 0.00053090125
000220 17 84 bd 3b c4 70 97 3d 53 60 ef 3c 78 89 2d 3d
       0.0057835686 0.07394555 0.029220736 0.04236743
000230 e1 32 f1 3d 6f a2 c2 3c 57 13 e0 3d c0 5c b9 3d
       0.117772825 0.023759095 0.10941189 0.09050894
000240 b6 60 f1 3c 0d 8b c1 bc e8 93 88 3c e2 90 e0 bc
       0.02946506 -0.023625875 0.01667209 -0.027412836
000250 8c d4 56 bc f0 69 aa bd 24 b5 89 3d 9a 83 6b bd
       -0.013112199 -0.08320987 0.06724003 -0.057498552
000260 6d cb 16 be 53 40 b9 bc 3d 9f 07 bd 56 b7 32 bd
       -0.14726038 -0.02261368 -0.033110846 -0.043631874
000270 e4 82 e2 3b a4 25 10 3c c9 44 71 bd 2a 2e f1 bc
       0.006912576 0.008798037 -0.05890349 -0.029440958
000280 48 62 a9 bd a3 50 9f bd 20 ef ab bc e2 38 8e bd
       -0.08270699 -0.07779052 -0.020988047 -0.06944443
000290 36 1e cb bd c7 8b a5 bd 2b 74 b7 bd 29 da 57 bd
       -0.09917872 -0.08083301 -0.08957704 -0.052698288
0002a0 a3 af ca 3d 67 a6 99 3d 02 22 41 bc 2d d2 8b bd
       0.09896781 0.07502442 -0.011787893 -0.06827197
0002b0 4b d8 9b bd c1 f1 e5 bd c8 8c 93 bd 08 e2 88 bd
       -0.07609614 -0.112277515 -0.07204586 -0.06683737
0002c0 62 09 8a 3c 1f 03 62 bd 37 c7 b2 3c aa e2 e9 3d
       0.016850177 -0.055178758 0.021823509 0.11420186
0002d0 60 3a 07 3d dc 18 86 bc 25 e6 d8 bd 0d 2b d4 3c
       0.033014655 -0.016369276 -0.105907716 0.025899434
0002e0 00 5f a9 bd 5b da 10 be 2d 00 83 3c 54 2a ac bd
       -0.08270073 -0.14145796 0.015991295 -0.08406511
0002f0 5c 9d f9 bd 91 12 97 bd 81 90 da bd 6e 17 b0 bc
       -0.12188217 -0.07376588 -0.10672093 -0.021495547
000300 26 00 d6 3b 84 3f 0d 3d 2c 71 4a bd e3 31 f5 3d
       0.0065307794 0.0344844 -0.049424335 0.11972406
000310 25 45 5d 3e 2b 99 2f 3e 05 83 90 bd 31 dd cb bd
       0.21608408 0.17148273 -0.0705624 -0.09954298
000320 0a d4 c0 bc 4f 2b d9 bc 9a da 6a bc 4c 2a fb bc
       -0.023538608 -0.026509909 -0.014334345 -0.030659817
000330 7e fe 34 3e ca 6a 51 3e ae 18 5f 3e 9e e1 6a bc
       0.17675206 0.20450893 0.21786758 -0.014336018
000340 c9 8c 9b 3d be 15 69 3d 36 e3 d0 3c bd 41 96 3d
       0.07595212 0.0569055 0.025498968 0.07336757
000350 14 9f 12 3e f8 11 78 bd a3 50 c3 3d 05 94 27 3e
       0.14318496 -0.06056401 0.095368646 0.16365059
000360 2a ee b1 bc df fc 19 bd 6f 33 63 bd f0 1a 19 bc
       -0.02172001 -0.037594672 -0.055468973 -0.009344801
000370 c3 a9 8c bd 6e 93 0f be 5f 05 c5 3d 7e fd 90 bc
       -0.06868317 -0.14021084 0.09620165 -0.017699
000380 9f 72 e2 bd 8f 39 da 3d 46 7e 84 3d be b9 04 3d
       -0.110570185 0.1065551 0.06469397 0.0324037
000390 23 12 d5 3d 07 8a 8c 3c ee 96 c6 bd ee 74 74 bb
       0.1040385 0.01715566 -0.09696756 -0.003730114
0003a0 8d 8e ef bd dc fe 74 be 0c db cf bc 8c d1 78 bd
       -0.11697111 -0.23925346 -0.025373004 -0.060746714
0003b0 04 f8 7a 3d 80 12 08 be 9d 38 1f be 64 1b 50 bd
       0.061271682 -0.13288307 -0.1554894 -0.05080737
0003c0 36 36 0a be 6c 93 6f be 95 7f fa bd d3 85 2a bd
       -0.13497242 -0.2339608 -0.122313656 -0.04163153
0003d0 f2 c4 76 bd 52 16 1d be 44 3b 67 3d b8 0a 0b bc
       -0.060246415 -0.15340546 0.056453004 -0.008486442
0003e0 ab bb 04 be 99 a2 a4 3d 87 43 76 3e 64 39 c6 3d
       -0.12962215 0.080388255 0.24049197 0.09678915
0003f0 c9 93 9f bd 36 e4 90 bc ea 49 a2 bc e4 9f bc bc
       -0.0779186 -0.017686944 -0.019810636 -0.02302546

conv_block_2.0.bias f4 [40]
000000 a0 f6 44 be 41 9b 0b be 37 56 31 bd aa 11 18 3e
       -0.19234705 -0.13633443 -0.04329511 0.14850488
000010 70 da 46 bd e6 f9 13 bd 65 71 0d 3e 88 79 4e bd
       -0.048548162 -0.036126994 0.13812788 -0.05040887
000020 f7 72 4b bd 09 7c c8 bb 22 79 d1 bd f8 53 b4 3c
       -0.049670186 -0.006118302 -0.102281824 0.022012696
000030 79 f9 a6 bd ca 2e d2 3c 58 34 69 3d e5 ff ed bd
       -0.08153052 0.025657076 0.056934685 -0.11621074
000040 ba 31 56 3e dd 96 45 bd be a6 1d 3c bc 5e 89 bc
       0.20917407 -0.048239578 0.009622274 -0.016768806
000050 01 81 8f 3c a2 cc 0e be 80 33 34 bd 80 64 3b bd
       0.017517569 -0.13945249 -0.043994427 -0.04575014
000060 5b 27 52 bd 5c bd 5f 3d 6f bb 0b be 68 7e 37 3e
       -0.051307064 0.054623947 -0.13645719 0.17919314
000070 58 59 05 be b1 73 04 3e 06 52 0e 3c 7d 34 ef 3d
       -0.13022363 0.12934758 0.008686548 0.11679933
000080 07 e5 59 3d 89 cf d8 3b 2a 7c 05 be 98 de b2 3d
       0.053196933 0.006616537 -0.13035646 0.08733863
000090 b3 bc fb 3d 11 8f 32 be 5d dc 2d 3e 2e 3a 2c 3d
       0.12291851 -0.17437388 0.16978593 0.042047672

conv_block_2.2.weight f4 [40, 40, 3, 3]
000000 5d a1 3f 3e 52 58 1c bb 61 f0 17 be fb 44 1b 3e
       0.18713899 -0.0023856354 -0.14837791 0.15163033
000010 b0 48 03 be 9a 80 e8 bd c3 70 00 3d a9 bb bb bd
       -0.12820697 -0.11352654 0.031357538 -0.09166653
000020 88 8e 5e bd 6f 6c 8b 3d 15 7d a2 bc c3 cb 80 3d
       -0.054335147 0.068077914 -0.019835034 0.062888645
000030 3c 84 36 bd 77 a9 50 bd 9e a9 80 3d 16 0e c3 bc
       -0.044559702 -0.050942864 0.06282352 -0.023810428
000040 28 58 e0 bd 34 ec 4a bd 80 d1 50 bd 65 b3 8f bd
       -0.109543145 -0.049541667 -0.050981045 -0.07016639
000050 49 e0 0a bd 6b aa 33 3d f6 59 f5 3c ec 78 18 bb
       -0.0339053 0.043863695 0.029950123 -0.0023265434
000060 c0 5e a6 3c 37 2c 5d 3d a8 bb 61 3d c5 e5 9a ba
       0.020308852 0.053997245 0.055110604 -0.0011817744
000070 da cd a8 bd 9f 04 cc bc 99 e2 14 bd 1b 68 89 bb
       -0.08242388 -0.024904547 -0.036348913 -0.0041933185
000080 8f fe 4a 3c 3d aa 5d 3d 2e 9b 05 3d c0 9a ba bc
       0.012389793 0.05411743 0.032618694 -0.022778869
000090 74 a4 fb bd 10 c8 b9 bd 6b ff 94 bc dd 77 12 3d
       -0.12287226 -0.09071362 -0.018188199 0.03575884
0000a0 89 31 67 3b 62 91 58 3d d5 8f eb b9 6f 90 86 3d
       0.0035277328 0.052873023 -0.00044929856 0.06570517
0000b0 b5 17 ed 3c 4b 23 8c 3e 89 c1 e8 bb c4 68 68 be
       0.028941968 0.27370676 -0.0071031493 -0.22696215
0000c0 ce aa 70 3e 80 cc 27 be dc bb 74 be 17 4f bc 3d
       0.23502657 -0.16386604 -0.23899788 0.09194773
0000d0 19 ad a8 bd 20 7e 4e be 56 96 d9 3b 71 1f 6c bb
       -0.08236141 -0.201653 0.006640236 -0.0036029483
0000e0 61 33 cb 3c ec 08 35 bd 61 58 bc 3c 26 ef 95 bc
       0.024804773 -0.04419796 0.022991361 -0.018302511
0000f0 97 1d 55 bd 7e 0c b6 3c 54 2f 63 bd 1c 56 5f bd
       -0.052030172 0.022222754 -0.055465057 -0.05452548
000100 bd 0e 9a bd f9 df 67 3c e1 01 8b bb 3d 14 a9 bb
       -0.07522342 0.01415252 -0.0042421673 -0.0051598833
000110 66 31 45 3d c7 d6 bd bc b8 a9 18 3d 1d 8f 0f 3c
       0.048142813 -0.023173703 0.03727123 0.008762148
000120 43 a6 b2 ba 6e 0e 10 be 6f 74 c9 3b 4a dc 1f bd
       -0.0013629872 -0.14068004 0.006147913 -0.039028443
000130 d5 fe 09 be ef 28 09 3d d5 41 21 bd f5 dc a2 bd
       -0.13476117 0.033486303 -0.039369423 -0.079523005
000140 8e c5 71 3d 7d f0 20 3e c4 fb 5f bd 9f 8d fa bd
       0.059026293 0.15716739 -0.05468346 -0.12234043
000150 cc d0 ed 3d 48 81 11 be b3 2e 72 be 33 bd 50 bd
       0.116120905 -0.14209473 -0.23650627 -0.050961684
000160 3c 8a 21 be 05 b2 30 be 26 c8 21 be 9e c9 54 3d
       -0.15775388 -0.17255409 -0.15799007 0.05195009
000170 72 b9 5c 3d f9 4b 80 bc 11 b0 0c bd 91 1a a0 3d
       0.053887792 -0.015661227 -0.034347598 0.07817567
000180 7c 82 e5 bc 5a a1 60 3b 76 1b d0 3d 77 86 bf 3c
       -0.028016321 0.003427586 0.10161488 0.023379548
000190 0f ce 08 be f5 6e 22 be 46 48 f0 3b 76 ed 72 be
       -0.13359855 -0.15862639 0.0073328344 -0.23723397
0001a0 17 06 f0 bd 5c 43 81 bb f7 d4 23 bd 46 89 42 bd
       -0.117199115 -0.0039447974 -0.03999802 -0.047494195
0001b0 3c 1e 1e be bd 04 82 be 25 be 25 bd 46 3d 95 be
       -0.15441221 -0.2539424 -0.04046454 -0.2914831
0001c0 76 f0 47 be a9 c2 a8 bd d1 84 c1 bd 2d 91 2c bd
       -0.19525322 -0.082402535 -0.09449161 -0.042130638
0001d0 93 12 d2 bd cc 57 c7 bc 4e 21 ab bd c4 98 17 bd
       -0.10257449 -0.024333857 -0.08355962 -0.037010923
0001e0 35 86 a8 bd ee f5 41 be 15 a2 44 bd c4 a0 39 bd
       -0.08228723 -0.18941471 -0.048006136 -0.045319334
0001f0 9f 4d b5 bd 0d da 16 bd 18 16 14 bd 9a 0f 50 be
       -0.08852696 -0.036829043 -0.036153883 -0.20318452
000200 a8 5a 66 bd 55 23 0e bd d6 67 04 be 91 2b 42 3d
       -0.0562388 -0.034701664 -0.12930235 0.04740483
000210 48 39 8e 3d 78 2e 28 bd 4e 52 07 3c 03 37 b9 3d
       0.06944519 -0.04105994 0.008259369 0.09043696
000220 1c 4f 9c 3d 7a 2d 94 3d 57 27 24 3e 0f 46 ba 3d
       0.076322764 0.072352365 0.16030632 0.09095394
000230 e3 03 f4 3d 62 e5 e5 3d 26 1e 0c 3e 55 da b3 3d
       0.11914804 0.11225392 0.13683376 0.08781878
000240 4d 28 22 be 19 89 c4 bd 01 65 c7 bc 74 98 e4 bc
       -0.15835686 -0.09596462 -0.024340155 -0.027904727
000250 36 82 8b bd 88 07 8e bc 4c cd 41 3d 5b da 51 bd
       -0.06811945 -0.017337576 0.047314927 -0.05123363
000260 0d 89 8c bd 60 2d ac 3b f5 05 f6 3d 86 ba d6 3d
       -0.06862078 0.0052544326 0.12012855 0.10484795
000270 8f d7 f4 bc 59 57 fa ba ec 97 83 ba 64 92 3b be
       -0.029887943 -0.0019099518 -0.0010039783 -0.18317562
000280 ff a9 67 bd e7 65 35 bd c8 22 98 bd d7 61 a5 bd
       -0.056558605 -0.044286635 -0.07428509 -0.08075302
000290 ae 42 d8 bd 29 fa 77 3d 46 64 ba 3c 98 26 3e bc
       -0.10559593 0.060541306 0.022752892 -0.011605881
0002a0 a4 d4 15 3e 6a a4 76 3d 30 b4 9a 3d 83 82 4f bd
       0.14631897 0.06021539 0.07553899 -0.050661575
0002b0 a7 98 11 3e 99 96 1b 3e d8 25 a0 b8 d5 66 cd 3d
       0.14218388 0.15194167 -7.6364435e-05 0.10029379
0002c0 94 62 6f 3d 97 57 9b 3d 5d 49 71 3d 1a 2d af bc
       0.05844362 0.07585066 0.058907855 -0.02138381
0002d0 8d 03 85 bd 4f 0e 28 bd f2 fd 6d 3d 42 7e f0 bd
       -0.06494818 -0.04102927 0.05810351 -0.11742832
0002e0 6c 65 8d 3b 7d 7b b3 3d cb 4b 1a bd ef e8 05 bd
       0.004315069 0.08763788 -0.037669938 -0.032692846
0002f0 06 c6 b6 3d 8b 4f d9 bb 51 84 dd 3d 6c 0f 0f 3e
       0.08924489 -0.0066317967 0.10816253 0.13970727
000300 51 ad a7 bd 4f da b9 bb f3 9a 47 3d 11 6b 2a be
       -0.08187354 -0.0056717764 0.048731755 -0.16642405
000310 d5 41 ce bd 5b cc f8 bc 45 0d 87 bd 88 2a 0e be
       -0.1007115 -0.030370882 -0.06594328 -0.13883412
000320 1b 06 5a bd ab 78 0f be 1f cc ba bd 77 cd ef bc
       -0.05322848 -0.14010875 -0.09120964 -0.029272778
000330 15 37 18 bd 7e 38 0c bd 8c 84 2e bc ad 6b 3d 3d
       -0.037161905 -0.034233563 -0.010651719 0.046245266
000340 67 b1 8a 3c 66 c6 ef 3b 96 86 3e 3d 9f 71 30 ba
       0.016930295 0.007317352 0.04651507 -0.0006730798
000350 a9 cf 3c bc 29 30 8c 3c 05 75 52 bd 3a e9 61 bd
       -0.011524119 0.017112808 -0.05138113 -0.055154063
000360 21 17 a8 bc 25 52 f4 3d 1c 13 70 3d 6f 0d 6c 3d
       -0.020518841 0.1192973 0.058611974 0.05763
000370 73 36 50 3e 24 09 dd 3d f7 2d e9 3d b7 2f cf 3d
       0.2033327 0.10792759 0.1138572 0.10116523
000380 f1 53 27 3c d7 f7 e3 bd c7 f9 86 bd ed d5 74 3d
       0.010212884 -0.11131256 -0.0659061 0.059774328
000390 7c 4d 45 bd dc 6f f1 3c 57 2d 3b 3d 77 17 20 3d
       -0.048169598 0.029472284 0.045697536 0.039084878
0003a0 a7 e4 5a bb b7 0e f8 bc 4c 42 1b 3e 8c 5a 2b bd
       -0.0033400448 -0.030280454 0.15162009 -0.0418344
0003b0 47 9e 1f bd 59 da 01 3e c7 cd 0c 3c 86 b8 cb bd
       -0.038969304 0.1268095 0.008593983 -0.099473044
0003c0 ac 42 bd 3d 2d 38 26 bc 1b 77 4e bd d0 69 be 3a
       0.09241232 -0.010145229 -0.050406557 0.0014527384
0003d0 12 35 37 bd 76 17 62 3d de 45 2a be f8 22 15 be
       -0.044728346 0.055198155 -0.16628215 -0.14564121
0003e0 83 16 8c bc 2b 6b 30 be f1 09 d5 bd 05 36 a4 bd
       -0.017100578 -0.17228381 -0.10402287 -0.08018116
0003f0 fb 76 05 3e 07 df e0 3d f3 1c 8d 3d ef 07 69 3d
       0.13033669 0.10980039 0.06890287 0.05689233

conv_block_2.2.bias f4 [40]
000000 20 44 ec bc 1b 76 ae 3d 72 c4 77 3e 85 26 89 3d
       -0.028841078 0.085186206 0.24196032 0.066968
000010 88 e9 51 3e 79 4c 74 bd 4c 20 b8 3d 4d eb 90 bd
       0.20499241 -0.059643243 0.08990535 -0.0707613
000020 a9 83 8b bb a8 da 21 bb 83 e9 7a 3d 48 81 ef bc
       -0.0042576385 -0.002469698 0.06125785 -0.02923645
000030 39 b7 3d 3e d0 6b 0e 3e 19 80 2c 3c f7 82 17 3e
       0.18526925 0.13908315 0.010528588 0.14796053
000040 6a 9d e9 3d af df e1 3d ae 31 5c 3e 89 f9 1b 3e
       0.114069775 0.110289924 0.21503326 0.15231909
000050 c4 55 9e bd 6b 55 0b bc 02 c9 74 3c 0a b5 2b bc
       -0.07731202 -0.008504252 0.014940502 -0.010480175
000060 89 a7 17 3e 64 73 1f bd e7 47 82 3d 60 36 80 3d
       0.14810003 -0.038928404 0.063613705 0.06260371
000070 a2 79 b0 3c 00 ed 8a 3d 89 3c ca 3b a0 e6 10 3d
       0.021542374 0.067834854 0.006171767 0.03537619
000080 d7 a0 0d be a4 12 14 3e 29 c8 cd 3c 21 66 a3 3d
       -0.13830887 0.14460236 0.025119858 0.07978464
000090 e8 7e bf 3c 1d 49 5f 3e 2e 7b 29 3e b1 a7 89 3d
       0.023375943 0.21805234 0.16550896 0.06721438

conv_block_2.4.weight f4 [40]
000000 72 c2 7e 3f 6b d1 87 3f b4 7d 80 3f 70 dd 83 3f
       0.9951545 1.0610784 1.0038362 1.0301952
000010 75 46 82 3f 12 88 81 3f d4 d7 74 3f 0f d6 78 3f
       1.0177752 1.011965 0.9564183 0.9720163
000020 70 5e 7f 3f f3 20 74 3f cf e3 7e 3f 6d 6e 71 3f
       0.99753475 0.95362777 0.9956636 0.9430912
000030 24 60 69 3f 6b ff 59 3f 2b d8 82 3f 81 4f 6a 3f
       0.91162324 0.8515536 1.0222219 0.91527563
000040 47 21 6f 3f a7 1a 73 3f f7 58 5c 3f 7e ad 66 3f
       0.9341015 0.94962543 0.8607325 0.9010848
000050 0e e8 80 3f 62 d9 73 3f 0a 0b 72 3f 61 a5 7c 3f
       1.0070817 0.95253575 0.94548094 0.9868985
000060 eb 4a 55 3f 8d e8 85 3f ca bd 99 3f 33 e4 45 3f
       0.8331744 1.0461594 1.2011044 0.7730133
000070 33 af 6d 3f 03 12 78 3f 80 fe 5c 3f b4 a6 4b 3f
       0.9284546 0.96902484 0.86325836 0.79551244
000080 93 c5 3f 3f 96 37 75 3f 3f 5f 9c 3f f1 5d 63 3f
       0.7491085 0.9578794 1.2216567 0.8881522
000090 37 56 91 3f 06 7e 80 3f c8 c3 80 3f df 00 8a 3f
       1.1354436 1.0038459 1.0059748 1.0781516

conv_block_2.4.bias f4 [40]
000000 d2 8b 11 bc 18 60 9f bc b3 a3 14 be 37 da f8 bb
       -0.008883433 -0.019455 -0.14515571 -0.0075943726
000010 f0 4e 0d bd a9 e9 99 bd c3 70 05 bb 32 2e 7d bd
       -0.03449911 -0.0751527 -0.00203614 -0.061811633
000020 70 ae 87 bd c8 87 27 be e9 49 72 bd 8d a3 4a bd
       -0.06625068 -0.1636039 -0.059152517 -0.04947238
000030 0d 41 47 bd 7a 1a 9e 3c f5 7a 84 bd 11 30 9b 3c
       -0.04864602 0.019299734 -0.06468765 0.018943818
000040 f8 78 be 3c 72 30 58 bd 56 bb 5b 3d 8b 22 a9 3d
       0.023251042 -0.052780576 0.053645454 0.08258542
000050 60 f6 37 be b5 16 ed bd 25 36 a7 bd c8 d4 ee 3c
       -0.17965078 -0.11576597 -0.08164624 0.029154196
000060 24 9e 72 39 a2 56 9c bd 01 9e 26 3d 44 86 52 3d
       0.0002313783 -0.076337114 0.040678028 0.051397577
000070 1f 34 36 bc ec fb ed bc e4 4b 30 bd 86 70 57 3d
       -0.011120825 -0.02905079 -0.043041125 0.052597545
000080 f3 94 57 bb 1f b0 31 3e 46 9e da 3d ff 17 ab bc
       -0.0032895177 0.17352341 0.106747195 -0.020885466
000090 8b f6 73 3d c8 94 97 bd ef d6 81 bd 67 ec 21 bb
       0.059561294 -0.07401425 -0.063398235 -0.0024707557

conv_block_2.4.running_mean f4 [40]
000000 71 30 f2 3f af b2 2e 40 5f f0 0c 41 c2 08 a5 41
       1.8921033 2.729656 8.808684 20.629276
000010 fa e3 61 41 ef 6e d2 40 f7 45 ae 41 44 ca b0 41
       14.118158 6.5760417 21.784163 22.098763
000020 46 85 72 41 85 dc 4f 40 41 42 30 41 ae 02 c9 41
       15.157537 3.2478344 11.016175 25.126308
000030 b9 ab 53 41 74 e7 e0 41 16 6d 0c 41 f6 dd 4a 41
       13.229424 28.113014 8.776632 12.67919
000040 b8 e9 92 41 bf 08 8f 41 f4 0a 9b 41 7d ef b3 41
       18.36412 17.87927 19.380348 22.491938
000050 b3 fd 84 40 78 69 aa 41 46 58 96 41 6d b0 1a 3e
       4.155969 21.301498 18.793102 0.15106364
000060 10 f8 f3 3e ad 73 27 41 e0 61 f9 3f 4d 91 81 41
       0.47650194 10.465741 1.9482994 16.195948
000070 82 1a bd 41 4f 69 a0 41 17 3e bb 41 c1 6c 5a 41
       23.637943 20.05142 23.405317 13.651551
000080 f0 6c 76 41 5d 16 22 41 1f d6 9d 3d df 38 a3 41
       15.401596 10.13046 0.07706856 20.40277
000090 81 07 ae 40 89 19 1d 40 61 7d 3a 41 ef 38 14 3f
       5.438416 2.4546835 11.65561 0.57899374

conv_block_2.4.running_var f4 [40]
000000 91 ed 0a 42 81 d8 4a 42 ca ed 0c 43 9a 99 d7 43
       34.732 50.71143 140.92886 431.2
000010 2f d8 ab 43 c7 15 0e 43 e4 e3 05 44 76 a5 49 44
       343.68893 142.08507 535.5608 806.5853
000020 71 ba ac 43 6d c9 94 42 bd 6f 7f 43 e4 87 49 44
       345.45657 74.39341 255.43648 806.1233
000030 31 a3 a6 43 e9 85 5e 44 96 17 55 43 35 31 9e 43
       333.27493 890.09235 213.09213 316.38443
000040 95 11 23 44 ab 38 20 44 a3 94 ff 43 0a de 34 44
       652.2747 640.88544 511.16122 723.46936
000050 28 a4 bc 42 9b 26 2e 44 6a 58 20 44 33 7e f3 3f
       94.32062 696.6032 641.3815 1.9022888
000060 fa 55 79 40 f1 d9 3b 43 32 ad 15 42 12 10 01 44
       3.8958726 187.85133 37.419136 516.2511
000070 ea ef 2c 44 f2 6d 2f 44 8d e8 2c 44 42 b5 a0 43
       691.74866 701.7179 691.6336 321.41608
000080 69 1e b6 43 8c 0a 9f 43 9e a3 a9 3f 4f 16 f4 43
       364.23758 318.0824 1.3253057 488.1743
000090 a0 cf d3 42 13 d9 02 42 96 b7 94 43 a6 26 5c 41
       105.90552 32.711987 297.43427 13.759436

conv_block_3.0.weight f4 [40, 40, 3, 3]
000000 7b c8 c4 3d dd 4c aa 3d ea c0 ac 3d 50 43 a9 bd
       0.09608551 0.08315442 0.08435233 -0.08264792
000010 50 83 db 3d de 24 b4 bd 68 55 86 bd 93 17 12 be
       0.10718405 -0.08796094 -0.06559259 -0.14266805
000020 19 6c 6b bd 0b 80 85 bd 0c 07 1a 3d 11 97 70 3d
       -0.057476137 -0.06518563 0.037604377 0.05873782
000030 bd 65 8e bd bc c9 ec bc 79 60 cc bc df bc 11 3c
       -0.06952999 -0.028904788 -0.024948345 0.008895128
000040 cb 8b 42 3c 08 34 1f be 26 11 13 be 72 70 e3 bd
       0.01187415 -0.15547192 -0.1436201 -0.111054316
000050 9a 28 14 3d 30 fe 94 3d d1 18 a0 bd e5 85 a9 bd
       0.036171533 0.07275045 -0.07817233 -0.082774915
000060 4d 2a 01 3e 2a 7c c6 3d db 48 55 3d d0 39 ce 3d
       0.12613793 0.09691651 0.052071434 0.100696206
000070 76 97 49 3e 44 3d 25 3e 22 73 94 bc a9 55 20 bc
       0.19686684 0.16136652 -0.018121306 -0.009786048
000080 df 96 73 bd ed 79 29 be 70 dd 57 be 18 2d 18 be
       -0.059470054 -0.16550417 -0.21080565 -0.14860952
000090 ef fa 80 bd 45 b5 35 3a 37 05 b1 bb e8 ae 93 3d
       -0.06297862 0.00069316133 -0.005402233 0.07211095
0000a0 9b d2 00 3d d8 c7 a0 bd 92 80 45 3d 78 e8 69 bd
       0.03145085 -0.07850617 0.048218317 -0.057106465
0000b0 7e fa 47 be cc 81 01 bc 10 ec 0a be 38 e6 d4 bd
       -0.19529149 -0.007904481 -0.13566613 -0.10395473
0000c0 51 f0 be bc cd 9c 8e bd 1b 7c 49 bc 6a 77 0f 3d
       -0.023307951 -0.06963501 -0.012297655 0.03502599
0000d0 ba e5 6c 3d 96 92 f5 3d f4 8b 1d 3d 1e 2a e2 3d
       0.05783627 0.1199085 0.038463548 0.110431895
0000e0 5f c7 49 3e f0 c8 3f bd 7d 06 9e bd ed 19 8b bc
       0.1970496 -0.04682249 -0.07716081 -0.016980136
0000f0 33 10 a2 bd 2d d9 b3 bd e9 68 00 be dc 5f b5 bd
       -0.07913246 -0.08781657 -0.1254002 -0.08856174
000100 aa c1 3b be fa cd ea bd 1d 46 a7 3c cd ea 36 bd
       -0.18335596 -0.11465068 0.020419175 -0.044657517
000110 ee e6 a4 bd d6 8c d0 3d 17 d8 a0 3d 50 37 8d 3d
       -0.08051859 0.10183112 0.07853716 0.06895316
000120 88 36 c4 3d cc e5 01 3e d6 7b 15 3e 63 b9 99 bd
       0.095807135 0.12685317 0.14598021 -0.07506063
000130 a9 32 f4 bd 4c 9b d9 bd 15 e9 0d be 4c e9 e9 bd
       -0.11923725 -0.10625324 -0.13858445 -0.11421451
000140 04 3e c7 bd 75 92 53 bb df 5a 8e bd c8 b5 80 bb
       -0.097286254 -0.003228334 -0.06950926 -0.00392792
000150 49 e2 be 3d d3 be c2 bc d4 65 a3 3d 83 76 5f 3c
       0.09320504 -0.023772633 0.079784065 0.013639095
000160 b1 4c 54 3d 78 65 65 bd f4 57 02 3d b2 5d fb 3b
       0.05183095 -0.05600497 0.03182216 0.0076710815
000170 83 8f f1 bc 8b 38 96 bd cf 7b 42 3e 12 8d 2e 3e
       -0.029487377 -0.073350035 0.18992542 0.17046002
000180 d2 e7 8e bd 19 01 31 3d d3 fa d9 bc 57 3e a2 3d
       -0.0697781 0.043213937 -0.02660886 0.07922047
000190 0f 40 01 3e b4 1c 1a 3e 84 c5 f4 bd 51 02 44 be
       0.12622093 0.15050012 -0.119517356 -0.19141509
0001a0 9e 07 ca bd 39 9c 7e bd 46 92 c3 3b 46 e4 03 bd
       -0.09864734 -0.062160704 0.005968365 -0.03220012
0001b0 cc cf ca 3b 75 41 a3 bd f4 10 1f be 7f be 1c 3e
       0.006189322 -0.07971469 -0.15533811 0.15307043
0001c0 86 15 35 3e 36 5c 5b 3d 30 a1 9f bd f9 0d 98 3d
       0.17683992 0.053554736 -0.07794416 0.0742454
0001d0 2e cf 87 bd 41 6e dd bd 43 13 06 be 5c 8f 8c bd
       -0.06631313 -0.10812045 -0.13093285 -0.06863281
0001e0 cb bf 37 3b a2 bf 8b 3d 88 6c fc bb c7 48 d5 3d
       0.0028037902 0.068236604 -0.0077033676 0.10414272
0001f0 a4 f4 0e 3e 12 dc c0 3d da c7 4a 3d dc 9e 6f bd
       0.1396051 0.09416975 0.049507 -0.05850111
000200 67 d1 18 bd 41 4a 41 3b 68 d8 17 be af c9 a4 bd
       -0.037309077 0.0029493722 -0.14828646 -0.080462806
000210 ab 9d 39 bc ac b8 18 3e d4 19 24 3e 7d 4e 1a bd
       -0.011329095 0.14914197 0.16025478 -0.03767251
000220 b6 f1 0d 3e 37 58 d8 3d a5 8d 96 bd 24 39 57 bd
       0.13861737 0.10563701 -0.07351235 -0.052544728
000230 ce 12 0b 3c 6b 37 a0 ba 01 13 34 3d 71 a1 16 3d
       0.00848837 -0.0012223547 0.043963436 0.036775056
000240 eb 2a c1 3d 79 74 9d 3b 9c cf a9 bc aa 82 30 3d
       0.09432014 0.0048051444 -0.020728879 0.04309336
000250 fd 69 2f 3e 47 32 91 3c 88 11 42 ba b9 90 73 bd
       0.17130275 0.01772417 -0.0007403125 -0.05946419
000260 d4 04 09 be 91 9a 6c 3d 62 85 53 3d b8 9e 66 bd
       -0.13380748 0.057764594 0.051640876 -0.05630371
000270 d9 ed 72 3c 73 b1 33 3e 16 93 df 3c 3a a9 16 3d
       0.014827215 0.1754816 0.027291816 0.03678248
000280 2a a2 85 bd 71 35 9e bd 81 5e 86 bd 83 df 92 bd
       -0.06525071 -0.07725037 -0.06560994 -0.07171538
000290 33 fe 48 bd 9d 77 ba 3c 97 fe a0 3d 74 35 bb 3d
       -0.04907055 0.022762114 0.07861059 0.09141055
0002a0 a7 ab d9 3c 70 bd cc 3d ff 3a 48 3d 89 2c 97 bc
       0.026571108 0.0999707 0.048884388 -0.018453853
0002b0 ad e5 12 3d b7 2a 8f 3d 91 65 0d bd 12 ab ae 3d
       0.035863567 0.06990569 -0.03452069 0.08528723
0002c0 a2 68 04 3d 15 47 cc 3b 9d 66 dd 3d 1b 3a 4c 3d
       0.032326348 0.0062340596 0.108105876 0.0498601
0002d0 fd cd 89 3e ff 7a ec 3d e3 49 2c 3d 02 31 86 bd
       0.2691497 0.11546897 0.04206265 -0.06552316
0002e0 1c 4a ce 3c 18 38 df bc f3 6b 1b be 0a 10 32 bc
       0.025181822 -0.027248427 -0.15177898 -0.010868082
0002f0 29 01 2e bc 5a 3e d5 3b 35 49 ad bd cc f1 ad bd
       -0.010620394 0.006507677 -0.08461229 -0.08493385
000300 f6 20 ce 3d 19 a2 16 3d 8f 4b 76 bd f1 85 f3 3c
       0.100648805 0.036775682 -0.060130652 0.029726954
000310 64 58 5f bb 7f 27 24 bd 91 d0 04 3c 99 2c 48 bd
       -0.0034079785 -0.04007673 0.008106367 -0.048870657
000320 27 00 fd bd e1 4d 02 bd b0 53 08 3e 7c 1f 2e bc
       -0.12353545 -0.031812552 0.13313174 -0.010627624
000330 f6 ea 74 3d 0c 60 87 3d 74 27 eb 3c 90 1a a6 bd
       0.05979439 0.06610116 0.028705336 -0.08110535
000340 9d ad 37 bc 1c 84 07 bb 32 7a 01 bc 5a 4b 6c bc
       -0.011210826 -0.0020678109 -0.007902669 -0.014422262
000350 ae 8a 67 bd e5 86 37 3b 81 7e b3 3c 6d c3 45 3c
       -0.05652874 0.0028003987 0.021910908 0.012070519
000360 48 bf ad 3d 0e a0 0d 3e 46 0f f0 3d 21 5f 80 3c
       0.0848375 0.13830587 0.11721663 0.015670361
000370 0f 07 de bd 68 5e 01 be 58 ac 94 3d 41 98 10 3c
       -0.1084119 -0.1263367 0.072594345 0.008825363
000380 d7 9f 90 3d de 3b 56 3c 6d 38 88 3d a9 d9 ff 3d
       0.07061737 0.013075797 0.06651387 0.12492687
000390 61 4e a4 bd a4 a0 47 be 96 a3 80 bd 13 26 5e bd
       -0.08022762 -0.19494873 -0.062812015 -0.05423553
0003a0 6b b6 11 be 22 c7 84 3c a9 6a 03 3e f7 6e 5d 3e
       -0.14229743 0.016208235 0.12833656 0.21624361
0003b0 0d 9f d6 3d 4d 2e 3b bb 49 4f 12 3e 75 54 d9 bc
       0.10479555 -0.0028561533 0.14288057 -0.02652953
0003c0 49 32 3b be 8c db 1f be e1 87 15 be e6 79 40 bc
       -0.18280901 -0.15611094 -0.14602615 -0.011747813
0003d0 89 7d a3 bd bc 66 e0 bd fa 01 c3 3d c3 cf 32 3e
       -0.07982928 -0.10957095 0.095218614 0.17462067
0003e0 5b 3b 21 3e 81 e8 35 bc 25 a9 41 3e b3 2b 31 3d
       0.15745299 -0.0111027965 0.1891218 0.043254565
0003f0 27 f4 07 3d c4 33 56 3e ec e5 5e 3e 23 c1 74 bd
       0.033191826 0.20918185 0.21767396 -0.059754502

conv_block_3.0.bias f4 [40]
000000 3e fa 84 3e b0 ba 54 3e 8f de d6 3d 86 0a 50 3d
       0.2597217 0.2077434 0.104916684 0.050791286
000010 3d 61 0c be bd 39 0f 3d 79 57 01 3e 65 33 13 3a
       -0.13708968 0.034967173 0.12631024 0.00056152634
000020 99 d0 3b 3e c6 cd ec bc 32 e9 01 3e cd 43 4a 3e
       0.18341292 -0.028906714 0.12686613 0.19752426
000030 e4 09 82 3d 8a f6 56 3e d8 fc d5 bc 5c 50 d9 3d
       0.06349543 0.20992485 -0.026121542 0.106110305
000040 25 7a ee bd a8 89 62 3e 8e 7a 00 be 9e b5 00 3e
       -0.11644391 0.22122824 -0.12546751 0.12569281
000050 27 e0 48 bd ea 24 42 3c b1 a9 7e 3d 4b 8b 78 bd
       -0.049041893 0.011849621 0.06217355 -0.060679715
000060 ad ef 28 bd 26 5e 82 3e 70 43 73 bd 67 c4 58 3d
       -0.041244198 0.25462455 -0.059390485 0.05292168
000070 d3 77 89 3a bf 29 24 3c b5 73 6f 3c 5b 6a a6 3d
       0.0010487981 0.010019719 0.014614989 0.081257544
000080 ee 43 d2 bc 62 36 27 be b0 a1 a5 3d 2a cc ea bd
       -0.025667157 -0.16329339 0.0808748 -0.114647225
000090 19 7f 8d bd 88 59 16 be f1 d3 d0 3b b2 fc 2d 3e
       -0.069090076 -0.14682591 0.0063729216 0.16990927
