disease_model_state_2_test.pth (torch, 981627 bytes, 50 tensors)

conv_block_1.0.weight f4 [40, 3, 3, 3]
0.13177906 0.14596114 -0.077434376 0.1782078 -0.03649233 0.026167009 -0.105600074 0.10263886
0.14635026 -0.18686716 0.12979929 -0.01740014 0.120723 0.014733059 0.065046236 -0.062359955
0.11866028 -0.01229894 -0.12823871 0.011583795 -0.14217539 -0.05488986 -0.10778005 0.083892405
-0.20003133 -0.13530287 -0.110025674 -0.16888717 -0.0325344 -0.24562733 0.13688926 -0.20707677
0.10381638 0.00530442 -0.094733685 0.087156005 0.031344634 0.1683807 0.035110533 -0.035878964
0.0799815 -0.023583151 0.1110074 0.2071047 0.14861895 -0.09904502 0.097623 0.01456452
0.09033286 -0.12773478 -0.20269758 -0.07989469 -0.15428078 0.15101257 0.08130682 0.04014402
-0.03422195 0.034670368 0.13316211 -0.20983267 0.081241116 -0.10490551 0.030520288 -0.05419902
0.01557469 -0.12340275 0.18871638 -0.13129237 -0.17546964 -0.03834851 0.21318808 0.059276994
0.22732252 -0.16056834 -0.21513802 -0.10428184 -0.11928278 0.062577896 0.14135475 0.20245236
-0.08705403 -0.08625673 0.14087383 -0.015362548 0.17104068 -0.0292919 0.14553781 -0.12057214
-0.10486554 0.070091404 0.071945935 -0.023301719 0.15975781 0.16881503 -0.13389319 -0.083858036
0.18150613 -0.091005705 -0.07932041 -0.17246503 -0.10474809 0.08040662 -0.007123468 -0.16050905
0.0048908335 -0.13798971 -0.21079801 -0.12492383 -0.2716223 -0.23210843 0.12730733 -0.055566862
-0.05394287 -0.25171253 -0.18852974 -0.1499823 -0.009922199 -0.17954662 -0.10351945 -0.10638025
-0.005893394 -0.097644836 -0.010332682 -0.104999684 -0.13170072 -0.07639399 -0.03954975 -0.13589478
0.2064423 -0.007422798 0.17931382 0.10226336 -0.10218565 0.166837 0.015347261 -0.11401636
-0.2108048 -0.24696551 0.053291213 -0.05705487 0.045781393 -0.1488923 0.1494415 -0.14451145
-0.028445091 0.045613978 0.10241157 0.18952954 0.20681866 -0.12406599 0.09055626 -0.03699555
0.019745335 -0.17018624 0.1512283 -0.16861741 0.101783484 0.06161064 0.049780123 -0.10718701
0.17613542 0.039461385 0.0910313 -0.10581533 0.15621203 -0.01482725 -0.1004669 0.16374475
0.04438303 -0.13924943 -0.12627785 0.07948509 0.18432784 0.0315027 -0.0839603 -0.076296754
-0.15404685 0.07373161 0.110889845 -0.2218291 0.04185542 0.09752306 0.0440029 -0.097356
0.054947466 0.06709481 0.048161827 -0.07866228 -0.09090657 0.07496559 -0.028152721 -0.12970856
0.18506318 0.17512274 -0.0712494 -0.014927598 -0.016486576 -0.097624965 0.1169871 0.08462008
-0.19952543 3.837002e-05 0.1895585 0.056210715 0.018201062 -0.12957253 -0.18907522 -0.13846347
-0.052864634 0.03995224 0.16966458 0.10747455 -0.1827573 -0.09020346 -0.031477876 0.14675361
0.053497117 -0.041053224 0.088276364 -0.07471654 -0.156475 0.12343637 -0.101064906 -0.0725657
-0.21363074 0.19692157 0.2013796 0.12553996 -0.09031964 -0.16602674 -0.12271433 0.16836827
0.10540296 0.1860024 0.116493076 0.047729615 0.0014524283 -0.15301242 -0.19550228 -0.19210862
0.061203435 -0.12371696 -0.05303577 -0.15657781 -0.110224105 -0.21828412 -0.1266344 0.03127519
-0.10443943 0.15249869 -0.041935008 -0.13360097 -0.010689876 -0.07253572 -0.038347505 -0.12565047
00000000: 17f1 063e d676 153e ea95 9ebd 1b7c 363e
00000010: fb78 15bd 325c d63c da44 d8bd 5334 d23d
00000020: d8dc 153e 1b5a 3fbe 1bea 043e bd8a 8ebc
00000030: 9f3d f73d ee62 713c f636 853d 276d 7fbd
00000040: 2904 f33d 7e81 49bc 0251 03be f5c9 3d3c
00000050: 6d96 11be 31d4 60bd c9bb dcbd c8cf ab3d
00000060: 03d5 4cbe d68c 0abe 2455 e1bd c2f0 2cbe
00000070: ca42 05bd bb85 7bbe b32c 0c3e ef0b 54be
00000080: af9d d43d b3d0 ad3b bc03 c2bd d97e b23d
00000090: 3b63 003d fd6b 2c3e 10d0 0f3d d2f5 12bd
000000a0: 57cd a33d 7431 c1bc d957 e33d 4113 543e
000000b0: 912f 183e 1ed8 cabd 91ee c73d 06a0 6e3c
000000c0: 6f00 b93d e8cc 02be f48f 4fbe d49f a3bd
000000d0: c8fb 1dbe 0aa3 1a3e 3184 a63d 0e6e 243d
000000e0: 512c 0cbd 8402 0e3d a65b 083e 60de 56be
000000f0: be61 a63d b3d8 d6bd af05 fa3c cbff 5dbd
00000100: fc2c 7f3c 95ba fcbd de3e 413e 8271 06be
00000110: 50ae 33be 5413 1dbd fa4d 5a3e 6fcc 723d
00000120: 3cc7 683e 076c 24be 244d 5cbe b891 d5bd
00000130: 884a f4bd d728 803d 4dbf 103e ac4f 4f3e
00000140: 6249 b2bd 5ea7 b0bd 3b41 103e 32b3 7bbc
00000150: 4a25 2f3e 91f5 efbc dd07 153e 87ee f6bd
00000160: bfc3 d6bd 158c 8f3d 6458 933d 3fe3 bebc
00000170: 8d97 233e d9dd 2c3e 4c1b 09be c3bd abbd
00000180: bedc 393e 3361 babd bd72 a2bd ac9a 30be
00000190: 2b86 d6bd 3aac a43d fb6b e9bb 7c5c 24be
000001a0: 4943 a03b 2d4d 0dbe 6fdb 57be 11d8 ffbd
000001b0: 1412 8bbe d5ad 6dbe da5c 023e 149a 63bd
000001c0: 33f3 5cbd 77e0 80be f10d 41be f694 19be
000001d0: b890 22bc 12db 37be 0102 d4bd e3dd d9bd
000001e0: 5f1d c1bb 04fa c7bd 694a 29bc 130a d7bd
000001f0: 8edc 06be 7474 9cbd ebfe 21bd 0028 0bbe
00000200: 9c65 533e f13a f3bb 0b9e 373e 746f d13d
00000210: b646 d1bd 52d7 2a3e 1473 7b3c 6981 e9bd
00000220: 37dd 57be 87e4 7cbe e347 5a3d 5eb2 69bd
00000230: 4585 3b3d 3977 18be 3107 193e cffa 13be
00000240: ae05 e9bc b9d5 3a3d 28bd d13d 0814 423e
00000250: 45c8 533e 4f16 febd 8f75 b93d a588 17bd
00000260: f8c0 a13c 4d45 2ebe 97db 1a3e 0baa 2cbe
00000270: dc73 d03d 705b 7c3d 3ee6 4b3d dd84 dbbd
00000280: d85c 343e 43a2 213d 9e6e ba3d b5b5 d8bd
00000290: 0cf6 1f3e feed 72bc 97c1 cdbd b4ac 273e
000002a0: fbca 353d 6797 0ebe fb4e 01be 14c9 a23d
000002b0: 70c0 3c3e fa08 013d 61f3 abbd 7941 9cbd
000002c0: 75be 1dbe 9900 973d 371a e33d 2b27 63be
000002d0: 9770 2b3d 2cba c73d 633c 343d 9562 c7bd
000002e0: 9810 613d 0169 893d 5645 453d b119 a1bd
000002f0: 392d babd 8f87 993d 89a0 e6bc 52d2 04be
00000300: 3481 3d3e 6053 333e 35eb 91bd e292 74bc
00000310: db0e 87bc 99ef c7bd ef96 ef3d 4b4d ad3d
00000320: 6550 4cbe 7fef 2038 a01b 423e 353d 663d
00000330: 651a 953c a9ae 04be ef9c 41be 5ec9 0dbe
00000340: 9688 58bd f6a4 233d 8dbc 2d3e 9e1b dc3d
00000350: bb24 3bbe 97bc b8bd f2ee 00bd 9446 163e
00000360: cb1f 5b3d 6d27 28bd 3dca b43d fc04 99bd
00000370: fb3a 20be 35cc fc3d 1efb cebd 539d 94bd
00000380: 04c2 5abe cfa5 493e 7436 4e3e 8c8d 003e
00000390: 81f9 b8bd ea02 2abe a751 fbbd bb68 2c3e
000003a0: 82dd d73d 6a77 3e3e ec93 ee3d 2180 433d
000003b0: 685f be3a 4aaf 1cbe c031 48be 1fb8 44be
000003c0: 74b0 7a3d 515f fdbd 093c 59bd ef55 20be
000003d0: 2dbd e1bd df85 5fbe 73ac 01be 6a1a 003d
000003e0: 57e4 d5bd 9e28 1c3e 0bc4 2bbd b1ce 08be
000003f0: 9724 2fbc 9c8d 94bd 4612 1dbd 84aa 00be

conv_block_1.0.bias f4 [40]
-0.17214918 -0.095163465 -0.07990712 -0.25423583 -0.042674884 0.01918867 0.063738264 0.03840676
-0.08086015 -0.2585796 -0.076063685 0.10826958 -0.13579628 0.21472007 0.22679242 -0.07454164
-0.086624555 0.2922556 0.07500587 0.1446761 -0.15222573 0.16184509 -0.13629225 0.1209588
-0.07436946 0.0760786 0.0076459562 0.038834833 -0.021981463 0.2151846 -0.098018296 -0.23023137
-0.10566012 0.17588978 -0.09290969 -0.094383776 -0.05608838 0.026675835 0.15120108 0.09198474
00000000: e047 30be 10e5 c2bd 58a6 a3bd 332b 82be
00000010: dccb 2ebd 8f31 9d3c 3589 823d 6850 1d3d
00000020: 029a a5bd 8c64 84be 47c7 9bbd 71bc dd3d
00000030: 2e0e 0bbe 94df 5b3e 463c 683e 4aa9 98bd
00000040: 3768 b1bd 87a2 953e ad9c 993d f925 143e
00000050: 10e1 1bbe b8ba 253e 3290 0bbe 3fb9 f73d
00000060: 044f 98bd 19cf 9b3d ee8a fa3b 4611 1f3d
00000070: 7812 b4bc 5a59 5c3e d1bd c8bd c6c1 6bbe
00000080: 5564 d8bd 731c 343e 7047 bebd 484c c1bd
00000090: eebc 65bd 4887 da3c 75d4 1a3e 7f62 bc3d

conv_block_1.2.weight f4 [40, 40, 3, 3]
-0.054961734 -0.09467424 -0.04114577 -0.066454396 -0.018868059 -0.1013658 0.0066990247 0.01971549
0.006304982 0.0349131 -0.058315367 0.05517241 -0.02769475 -0.07849726 0.03685219 -0.03579722
-0.025527334 0.035130203 -0.027784621 0.08248518 -0.014213736 -0.01446755 0.100306295 -0.06662815
-0.012422533 0.04929389 -0.07125585 -0.08434106 -0.021056902 0.034726605 -0.07884488 0.00496791
0.055130553 -0.0100833215 -0.041394092 0.05798229 0.061170857 0.07737525 0.037191562 0.0774433
0.061963893 0.12235656 0.07387891 0.099015966 0.05640164 0.0672407 0.03806196 -0.030446952
-0.074939124 0.027679687 -0.065582626 0.025946023 0.07969346 -0.007474249 -0.023003215 0.022766275
-0.00025939572 0.004468254 0.07260563 -0.004154961 -0.03757342 0.024257781 -0.07442537 -0.080515146
0.075544484 -0.13888079 -0.04130086 0.08401979 -0.09321467 0.021151165 0.118336774 0.01935444
0.036344234 -0.03035292 0.013828091 -0.042932566 -0.025195237 0.024505205 -0.024919678 -0.01596172
0.007078777 -0.026379926 0.07769174 0.08006197 -0.057341136 0.057516538 0.03765173 0.05253092
0.18538114 0.104818314 0.026506675 -0.06640066 0.03792666 0.021263734 -0.045758586 0.0690711
0.0019187673 -0.03463631 0.036779746 -0.0029807081 -0.07573489 0.031620745 0.03159697 -0.06425662
0.034929477 -0.023161959 0.01198711 0.07272421 0.1435948 0.1279778 0.22008434 0.15738219
0.19290906 0.2291586 0.17305605 0.13617484 0.18351471 -0.07262025 -0.08865734 -0.017909514
-0.07817256 -0.07218762 -0.04397597 -0.09864639 -0.062138546 -0.074939385 -0.08811344 -0.059497684
-0.020176737 -0.0079596955 -0.10200252 -0.05857985 0.0020128086 -0.075611144 -0.045391873 0.04114179
0.023408078 0.06377392 0.027679414 0.007840238 0.063659705 0.049436744 0.0030394401 -0.012585258
0.09570178 0.12167428 -0.039328896 0.04242782 0.038038615 -0.08156987 0.031498283 0.07762408
-0.041555922 0.01165256 -0.03484386 0.036070887 0.03971989 0.038669188 0.014574757 -0.009082772
-0.040422626 -0.02443413 -0.025119143 -0.10617783 -0.0697464 0.029043738 -0.04626168 -0.08946715
-0.042103942 -0.082358986 -0.018331654 0.046774115 0.0023134095 -0.0006523592 0.008183359 -0.0306014
-0.0598307 -0.057914034 -0.061666876 0.0199388 -0.04201688 0.024958523 -0.041061196 0.017540207
0.0086233 -0.0062842006 0.07187067 0.0044258693 -0.005934383 0.025344815 0.14358945 0.120966345
0.07312761 0.15313084 0.17129764 0.065159895 0.17010768 0.12845515 -0.06951348 0.046920102
-0.00865934 -0.036734797 0.020034632 0.02301761 0.00014901445 -0.00593751 0.077481836 0.08175905
0.015577364 0.10866751 0.018714836 0.093767025 0.16567983 0.08881208 0.04392635 0.1416125
0.017994871 0.005788059 0.058532972 -0.017002815 -0.026879707 -0.020493226 0.030517668 -0.01914669
-0.0141971465 0.0088286605 0.05907253 0.02732207 0.0023837108 0.08269147 0.017380262 0.016473442
0.0988188 0.0030400758 0.0075402246 0.018749116 -0.054531973 0.037854087 0.039714567 -0.022838281
-0.044451237 0.053514183 -0.04208869 0.027009608 0.036584094 -0.040401347 -0.03069359 -0.03747282
0.036989246 0.05033372 0.008760955 0.04883083 -0.004533428 0.04143927 -0.006204368 0.035312414
00000000: 8e1f 61bd 91e4 c1bd 7888 28bd 3e19 88bd
00000010: 3091 9abc df98 cfbd 7e83 db3b 6182 a13c
00000020: 069a ce3b 0a01 0f3d 18dc 6ebd 77fc 613d
00000030: 1ae0 e2bc 2cc3 a0bd 52f2 163d 1ba0 12bd
00000040: b31e d1bc b0e4 0f3d 939c e3bc fded a83d
00000050: bbe0 68bc 4e09 6dbc 636d cd3d 5774 88bd
00000060: e187 4bbc 64e8 493d 96ee 91bd 01bb acbd
00000070: 867f acbc 7c3d 0e3d 6d79 a1bd d9c9 a23b
00000080: 93d0 613d 8434 25bc da8c 29bd d67e 6d3d
00000090: 4b8e 7a3d ea76 9e3d 2e56 183d 989a 9e3d
000000a0: dacd 7d3d 1396 fa3d d34d 973d e2c8 ca3d
000000b0: 6805 673d 7eb5 893d dce6 1b3d e36b f9bc
000000c0: af79 99bd 83c0 e23c 2f50 86bd c18c d43c
000000d0: 5336 a33d 8cea f4bb 3d71 bcbc 5780 ba3c
000000e0: 81ff 87b9 6e6a 923b 43b2 943d 5726 88bb
000000f0: 96e6 19bd 41b8 c63c 546c 98bd 20e5 a4bd
00000100: 11b7 9a3d c436 0ebe 172b 29bd 9112 ac3d
00000110: 55e7 bebd 3545 ad3c 8d5a f23d 348d 9e3c
00000120: b1dd 143d b0a6 f8bc 388f 623c 0fda 2fbd
00000130: 3e66 cebc 24bf c83c 5a24 ccbc 27c2 82bc
00000140: 16f5 e73b b71a d8bc d91c 9f3d 88f7 a33d
00000150: 8ade 6abd 7696 6b3d b338 1a3d a92a 573d
00000160: 8ed4 3d3e fcaa d63d 8724 d93c 12fd 87bd
00000170: fc58 1b3d 4831 ae3c 5b6d 3bbd 2675 8d3d
00000180: 267f fb3a cede 0dbd 5ca6 163d fc57 43bb
00000190: e51a 9bbd c184 013d d36b 013d fa98 83bd
000001a0: 3612 0f3d 26be bdbc 9565 443c 6ef0 943d
000001b0: 840a 133e 9d0c 033e ca5d 613e cc28 213e
000001c0: f489 453e 8da8 6a3e 9b35 313e 6b71 0b3e
000001d0: 48eb 3b3e edb9 94bd fb91 b5bd f9b6 92bc
000001e0: ef18 a0bd 1ad7 93bd 2620 34bd 1e07 cabd
000001f0: fd84 7ebd d279 99bd d274 b4bd d8b3 73bd
00000200: af49 a5bc 6269 02bc b2e6 d0bd 6df1 6fbd
00000210: 53e9 033b 04da 9abd d4ec 39bd 4b84 283d
00000220: 4cc2 bf3c e79b 823d f0bf e23c 5774 003c
00000230: 0560 823d 2f7e 4a3d 5831 473b 6632 4ebc
00000240: 4bff c33d 5d30 f93d 5617 21bd cbc8 2d3d
00000250: 61ce 1b3d 1b0e a7bd 5804 013d 60f9 9e3d
00000260: 8b36 2abd 61ea 3e3c 6fb8 0ebd 11bf 133d
00000270: 53b1 223d 9563 1e3d f6ca 6e3c e8cf 14bc
00000280: 3292 25bd 162a c8bc a9c6 cdbc c373 d9bd
00000290: 33d7 8ebd 22ed ed3c e37c 3dbd 8e3a b7bd
000002a0: 2f75 2cbd d4ab a8bd 442c 96bc 3796 3f3d
000002b0: 929c 173b 1603 2bba 7f13 063c caaf fabc
000002c0: 0911 75bd 4437 6dbd 6896 7cbd b256 a33c
000002d0: e419 2cbd d175 cc3c c92f 28bd 7bb0 8f3c
000002e0: be48 0d3c b2eb cdbb ee30 933d e206 913b
000002f0: 3675 c2bb ee9f cf3c 1d09 133e 34bd f73d
00000300: eec3 953d 55ce 1c3e a668 2f3e 8d72 853d
00000310: b530 2e3e bf89 033e 155d 8ebd 4b2f 403d
00000320: e8df 0dbc 3a77 16bd ab1f a43c 6d8f bc3c
00000330: c340 1c39 728f c2bb ccae 9e3d 4a71 a73d
00000340: 3338 7f3c 128d de3d db4f 993c ed08 c03d
00000350: f9a7 293e 1ce3 b53d 1eec 333d de02 113e
00000360: fb69 933c c2a9 bd3b 45c0 6f3d 7d49 8bbc
00000370: d532 dcbc 69e1 a7bc 3000 fa3c 85d9 9cbc
00000380: 269b 68bc 16a6 103c 0af6 713d 89d2 df3c
00000390: 0838 1c3b 255a a93d 0d61 8e3c 50f3 863c
000003a0: 8361 ca3d 023c 473b fd13 f73b bf97 993c
000003b0: eb5c 5fbd e30c 1b3d beab 223d 5917 bbbc
000003c0: 8012 36bd b031 5b3d 3165 2cbd 4143 dd3c
000003d0: 34d9 153d e27b 25bd 2071 fbbc 1a7d 19bd
000003e0: 0982 173d bb2a 4e3d 1c8a 0f3c d602 483d
000003f0: 268d 94bb 39bc 293d 034e cbbb c0a3 103d

conv_block_1.2.bias f4 [40]
-0.15700427 0.13631009 -0.11021477 0.08581164 0.06084463 0.054022763 0.23397508 0.025284287
0.16442709 -0.028163897 -0.037471958 -0.012746236 -0.1117898 0.083265476 0.13386694 0.22938573
-0.032068297 -0.0018748894 0.038381167 0.06557384 0.06551001 0.17459992 0.16544108 0.32082975
0.100636475 0.076291576 -0.17972052 0.09242537 -0.09532792 -0.0020364518 -0.054157004 0.26784453
-0.12198456 -0.11038172 0.012968748 0.08014543 -0.0759158 0.21925126 0.040157396 -0.046096466
00000000: bac5 20be df94 0b3e 48b8 e1bd 03be af3d
00000010: 3838 793d f946 5d3d 2a97 6f3e fe20 cf3c
00000020: 935f 283e f9b7 e6bc 327c 19bd 97d5 50bc
00000030: 0df2 e4bd 1787 aa3d 6a14 093e 18e4 6a3e
00000040: 0c5a 03bd d9be f5ba 9235 1d3d 944b 863d
00000050: 1d2a 863d 52ca 323e 6369 293e cc43 a43e
00000060: 7f1a ce3d c23e 9c3d a808 38be 8349 bd3d
00000070: 493b c3bd fe75 05bb bcd3 5dbd eb22 893e
00000080: 0ad3 f9bd d00f e2bd df7a 543c 4a23 a43d
00000090: be79 9bbd 6783 603e 157c 243d a6cf 3cbd

conv_block_1.4.weight f4 [40]
1.0746667 1.0350151 0.98850757 0.9375454 0.89670664 0.9952597 1.0401223 0.9463965
1.0188301 0.9265367 0.9738328 1.0139321 0.8933667 0.92142683 1.0551751 0.9740359
0.958213 1.0740217 1.0458832 0.8704343 0.95422256 0.9656358 0.97658396 0.9089561
0.97094774 0.89754367 1.2230827 1.0131537 0.92918545 0.937956 0.98241866 0.9586773
1.0353419 0.99602425 1.0324806 0.9592628 0.86908394 0.9152701 0.94394785 1.0127083
00000000: ae8e 893f 607b 843f d50e 7d3f fa02 703f
00000010: 918e 653f 57c9 7e3f ba22 853f 0b47 723f
00000020: 0669 823f 8231 6d3f 1b4d 793f 87c8 813f
00000030: aeb3 643f a1e2 6b3f fa0f 873f 6b5a 793f
00000040: 724d 753f 8b79 893f 80df 853f c8d4 5e3f
00000050: ee47 743f e833 773f 6801 7a3f 59b1 683f
00000060: 0890 783f 6cc5 653f f98d 9c3f 05af 813f
00000070: 19df 6d3f e21d 703f ca7f 7b3f e06b 753f
00000080: 1586 843f 72fb 7e3f 5328 843f 3f92 753f
00000090: 497c 5e3f 244f 6a3f 91a6 713f 6da0 813f

conv_block_1.4.bias f4 [40]
0.041958433 0.008078025 0.022789882 0.0069393185 -0.0148951905 -0.051923145 -0.030237444 0.026050901
-0.0836837 0.005742165 0.017008068 0.031157473 0.03082662 -0.078641675 0.026898531 -0.017146038
0.03900246 0.024808075 -0.015512014 0.030954275 0.010324518 0.012473762 -0.022641378 -0.036478296
0.034994226 0.084213875 0.03840088 0.040237457 0.007893212 0.10189473 0.058034208 -0.033312004
0.01960836 0.06583371 -0.0075319186 -0.023565084 -0.020687424 0.0078065046 0.057493098 0.07168613
00000000: 9bdc 2b3d b159 043c d9b1 ba3c 3963 e33b
00000010: f50a 74bc 5dad 54bd 84b4 f7bc b368 d53c
00000020: 5c62 abbd c528 bc3b 8154 8b3c f53d ff3c
00000030: 1c88 fc3c e30e a1bd 4f5a dc3c d975 8cbc
00000040: 0bc1 1f3d 4e3a cb3c 1a26 7ebc d293 fd3c
00000050: 2b28 293c c05e 4c3c 697a b9bc 446a 15bd
00000060: 1b56 0f3d 5378 ac3d 3e4a 1d3d 08d0 243d
00000070: 8852 013c 2fae d03d 47b5 6d3d 2b72 08bd
00000080: b6a1 a03c d3d3 863d 50ce f6bb 900b c1bc
00000090: ac78 a9bc b5cd ff3b e27d 6b3d 2dd0 923d

conv_block_1.4.running_mean f4 [40]
-0.2653695 0.18146752 -0.051866703 0.29401618 0.14454092 0.21222997 0.119544074 0.17496069
0.31540275 0.13021567 -0.014365682 -0.13224447 0.26327804 0.32719854 0.29811862 0.73419756
-0.2431553 -0.20708786 0.20713177 0.3560596 -0.029794296 0.25238806 0.5419154 0.7066886
0.024738487 -0.027088242 -0.19747598 0.19597298 0.022396209 -0.24474242 -0.20120533 0.8823479
-0.2026164 -0.23976853 -0.019183222 0.33384052 -0.1842984 0.62187165 -0.10997054 -0.1965765
00000000: 83de 87be 9fd2 393e 2e72 54bd 4a89 963e
00000010: 8902 143e d052 593e 86d3 f43d e528 333e
00000020: 787c a13e 4257 053e 0a5e 6bbc 186b 07be
00000030: 61cc 863e 9186 a73e 01a3 983e 5ff4 3b3f
00000040: b4fd 78be d70e 54be 5a1a 543e 724d b63e
00000050: 2b13 f4bc 0239 813e f8ba 0a3f 8be9 343f
00000060: 5ea8 ca3c 29e8 ddbc 2537 4abe 24ad 483e
00000070: 4178 b73c c29d 7abe c508 4ebe 8de1 613f
00000080: ac7a 4fbe e285 75be 2226 9dbc 25ed aa3e
00000090: b8b8 3cbe fb32 1f3f 3c38 e1bd 5a4b 49be

conv_block_1.4.running_var f4 [40]
0.00082398765 0.03014625 0.029788569 0.022044512 0.047418587 0.035920482 0.008946769 0.04555403
0.011318528 0.045966383 0.033174384 0.0051576043 0.076910205 0.04310094 0.033261787 0.05657272
0.0017843996 0.0038763236 0.027834047 0.0590845 0.016220534 0.016946407 0.031415258 0.04830783
0.01583843 0.010316803 0.003592565 0.0134088 0.045909733 0.002604715 0.003804562 0.04877757
0.0043412405 0.0017998373 0.010147468 0.03105412 0.0041981116 0.033464886 0.0045612194 0.004105284
00000000: e000 583a 45f5 f63c 2807 f43c b196 b43c
00000010: fe39 423d 5b21 133d 7895 123c dd96 3a3d
00000020: 5971 393c 3f47 3c3d dde1 073d 1f01 a93b
00000030: 1983 9d3d 9c8a 303d 833d 083d ccb8 673d
00000040: 84e2 e93a eb09 7e3b 3a04 e43c 9702 723d
00000050: ede0 843c 31d3 8a3c 49ad 003d 6ede 453d
00000060: 98bf 813c cf07 293c 3d71 6b3b 95b0 5b3c
00000070: d80b 3c3d deb3 2a3b f555 793b fdca 473d
00000080: f740 8e3b 85e8 eb3a 9141 263c 3665 fe3c
00000090: 5090 893b 7a12 093d 4876 953b 9e85 863b

conv_block_2.0.weight f4 [40, 40, 3, 3]
0.07377111 0.094776936 0.090374045 0.082883336 -0.012974158 0.018563876 -0.0069203177 -0.021727083
0.0229276 -0.021371586 -0.0060713678 0.0049398188 0.026225246 0.0016732203 0.045181643 -0.071448036
-0.05469407 -0.0019484778 0.064788125 0.0089553185 0.027717808 0.029117053 -0.0039606025 0.019398008
0.057472955 0.033999395 0.07938646 -0.15586643 -0.1572917 -0.16063513 -0.11413935 -0.064291745
-0.022956852 -0.11281179 -0.095998235 -0.058909405 -0.011978015 -0.016040748 -0.04633599 0.025927918
-0.0036742564 0.027836822 -0.018149078 -0.051244866 -0.016972069 -0.011197477 -0.0037254947 -0.020232618
-0.02500946 -0.008659664 -0.028587298 -0.006659089 -0.04713088 -0.019408612 0.010827962 0.00890985
0.03547921 -0.019716008 -0.021001412 -0.029598018 -0.11871301 -0.10880731 -0.091000274 0.000575726
-0.0045090592 -0.037506606 0.00095653656 0.015725136 0.03412614 0.029990746 -0.039467067 -0.032845695
-0.03110173 -0.045129575 -0.04779558 -0.072212406 0.008622119 -0.061749283 -0.08581591 -0.010999023
0.044716764 -0.042138804 0.015459931 0.005755 0.005774329 -0.019911578 -0.0037621094 0.011197477
0.03463872 0.05273443 -0.01311986 0.052792903 0.023214465 -0.024069317 -0.035027012 0.0492238
0.012805224 0.012197788 -0.0051280744 -0.07615073 -0.13312314 -0.1506898 -0.11478198 -0.1968519
-0.15903842 -0.17860521 -0.1699007 -0.19643141 0.0131520415 0.0067269956 0.029078687 -0.022880979
-0.023963464 0.05889676 -0.024505125 0.039902378 -0.02229699 -0.039559342 -0.04408861 -0.0650604
-0.041786812 -0.023032937 -0.021536898 0.011252067 -0.04447727 0.012290891 0.050800372 -0.01191655
-0.011434621 0.030599773 -0.0014167773 0.010613134 -0.063266404 0.00035476792 -0.042815853 -0.051827207
-0.05840259 -0.01770144 -0.032299194 -0.03344398 0.008016372 -0.02894854 0.024575444 -0.044304106
0.0075069168 -0.020019574 0.03606611 -0.040666606 0.023999635 -0.020669589 -0.00042848702 -0.078979835
-0.10115483 0.03392146 0.0069906972 0.015484828 0.08118513 0.06506474 0.008940021 0.04406944
-0.041830562 -0.04999897 -0.041836757 -0.054256827 -0.09063459 -0.09330649 -0.05489138 -0.01906643
0.035718795 0.033196203 -0.052577406 0.016334629 -0.0055772495 -0.05897494 -0.013059628 -0.056536615
0.0042650686 -0.03989258 -0.032525178 0.005435832 -0.039614607 -0.051021185 -0.10782334 -0.03429843
-0.05089735 -0.09908667 -0.06981711 -0.06851684 -0.08870815 -0.1069613 -0.09623224 -0.020162836
-0.041642286 -0.0057689208 -0.06356787 -0.0013515829 0.04626235 0.02143557 -0.10954581 -0.101278745
-0.06646694 -0.09886642 -0.09459784 -0.10678257 0.008566278 -0.031132773 -0.02471738 -0.0357427
0.02822701 0.0016549192 0.022903778 0.01944102 0.066622876 -0.040378578 0.05368149 0.055686336
-0.101392336 -0.074432574 -0.06570247 -0.08928784 -0.074126855 -0.101305395 0.009825447 -0.049192134
-0.08091209 0.0047181924 -0.022877697 -0.012008849 0.025509529 0.017848026 -0.037416615 -0.010518172
-0.0074120066 -0.041381694 -0.022822363 -0.0663508 0.018544368 -0.15452869 -0.1524305 -0.18822221
-0.15956208 -0.2393666 -0.19677776 -0.09152468 -0.020342661 -0.10222737 -0.041876394 -0.06741704
-0.12928674 -0.034434468 0.01791214 -0.0995407 -0.009480015 0.04180646 0.037501957 0.020634366
00000000: 4f15 973d 691a c23d 0716 b93d bdbe a93d
00000010: 9091 54bc 4513 983c d5c3 e2bb fffc b1bc
00000020: aad2 bb3c 7713 afbc 53f2 c6bb 34de a13b
00000030: 54d6 d63c f54f db3a 6310 393d 5953 92bd
00000040: e406 60bd 1164 ffba a3af 843d 54b9 123c
00000050: 7510 e33c e386 ee3c f1c7 81bb 92e8 9e3c
00000060: c368 6b3d f342 0b3d 5e95 a23d 739b 1fbe
00000070: 1311 21be 897d 24be e4c1 e9bd 64ab 83bd
00000080: 0210 bcbc de09 e7bd b99a c4bd fd4a 71bd
00000090: 703f 44bc e367 83bc cfca 3dbd c966 d43c
000000a0: cbcb 70bb 0c0a e43c 60ad 94bc 23e6 51bd
000000b0: 0209 8bbc 9f75 37bc 6e27 74bb e0be a5bc
000000c0: a4e0 ccbc 43e1 0dbc e92f eabc 7d34 dabb
000000d0: 4f0c 41bd cffe 9ebc c467 313c 9ffa 113c
000000e0: a652 113d 7783 a1bc 270b acbc 8b77 f2bc
000000f0: ce1f f3bd 5ed6 debd 5a5e babd 51ec 163a
00000100: bbc0 93bb 87a0 19bd 15c0 7a3a 00d2 803c
00000110: dac7 0b3d 27af f53c 38a8 21bd 3589 06bd
00000120: 0ec9 febc cad9 38bd 4cc5 43bd 19e4 93bd
00000130: ca43 0d3c d1ec 7cbd 40c0 afbd 3f35 34bc
00000140: ed28 373d bd99 2cbd a74b 7d3c 7094 bc3b
00000150: 9536 bd3b 9b1d a3bc b98d 76bb 9f75 373c
00000160: 55e1 0d3d 0f00 583d aef4 56bc 5f3d 583d
00000170: 432c be3c 042d c5bc 7c78 0fbd e59e 493d
00000180: 01cd 513c 3bd9 473c 6809 a8bb eaf4 9bbd
00000190: 6f51 08be 6d4e 1abe d112 ebbd 8b93 49be
000001a0: f8da 22be 49e4 36be 73fa 2dbe 5125 49be
000001b0: a97b 573c 216e dc3b 6d36 ee3c e470 bbbc
000001c0: 074f c4bc bb3d 713d f9be c8bc ad70 233d
000001d0: 2da8 b6bc fa08 22bd 4296 34bd 633e 85bd
000001e0: a628 2bbd 92af bcbc 266e b0bc 975a 383c
000001f0: cc2d 36bd bc5f 493c 0d14 503d a23d 43bc
00000200: 4758 3bbc 60ac fa3c 28b3 b9ba b6e2 2d3c
00000210: d191 81bd 2500 ba39 ad5f 2fbd c448 54bd
00000220: 8e37 6fbd 9c02 91bc 294c 04bd 8efc 08bd
00000230: 1a57 033c 7d25 edbc 7152 c93c 3978 35bd
00000240: 95fc f53b 1700 a4bc 0fba 133d 0792 26bd
00000250: e29a c43c 4553 a9bc 8ea6 e0b9 2ec0 a1bd
00000260: 432a cfbd 3bf1 0a3d 3812 e53b 13b4 7d3c
00000270: 6444 a63d aa40 853d 2a79 123c 2882 343d
00000280: 8656 2bbd b8cb 4cbd 055d 2bbd 683c 5ebd
00000290: a19e b9bd 7917 bfbd c9d5 60bd 3431 9cbc
000002a0: df4d 123d bef8 073d 685b 57bd 33d0 853c
000002b0: 5cc1 b6bb b58f 71bd 0df8 55bc f092 67bd
000002c0: fdc1 8b3b 6766 23bd 1f39 05bd 101f b23b
000002d0: ed42 22bd 97fb 50bd 7cd2 dcbd 837c 0cbd
000002e0: bd79 50bd f4ed cabd 46fc 8ebd 8f52 8cbd
000002f0: 9eac b5bd 870e dbbd 6915 c5bd 882c a5bc
00000300: 1a91 2abd 3709 bdbb df2f 82bd 9927 b1ba
00000310: 977d 3d3d a699 af3c 8e59 e0bd 3b6b cfbd
00000320: d21f 88bd 7a7a cabd 83bc c1bd d2b0 dabd
00000330: 9359 0c3c 280a ffbc 1a7c cabc f066 12bd
00000340: 553c e73c e0e9 d83a b4a0 bb3c c642 9f3c
00000350: 9371 883d 0264 25bd 1fe1 5b3d 5b17 643d
00000360: c9a6 cfbd 1b70 98bd 048f 86bd 8bdc b6bd
00000370: d2cf 97bd 3479 cfbd e9fa 203c b17d 49bd
00000380: 3db5 a5bd 119b 9a3b 026a bbbc c3c0 44bc
00000390: 5cf9 d03c 0636 923c 2a42 19bd 6954 2cbc
000003a0: 6be0 f2bb da7f 29bd f7f5 babc eee2 87bd
000003b0: 5cea 973c c53c 1ebe be16 1cbe 53bd 40be
000003c0: 3e64 23be 851c 75be 1c80 49be 4b71 bbbd
000003d0: a7a5 a6bc 955c d1bd 9586 2bbd f211 8abd
000003e0: be63 04be 280b 0dbd 7bbc 923c ffdb cbbd
000003f0: 1152 1bbc 403d 2b3d a79b 193d 6709 a93c

conv_block_2.0.bias f4 [40]
-0.15507254 -0.019599048 0.038626123 0.046050377 -0.012546105 0.014312027 0.010383806 -0.00415712
0.05012399 -0.073269054 0.0057501076 0.059093963 -0.122306205 0.115356326 0.0994443 -0.09088146
0.16635297 -0.06145172 0.13885798 0.0138946 0.022124322 -0.13460478 -0.01597418 0.009219374
0.02868706 0.04663734 -0.010809966 0.08135033 -0.0869105 -0.14390343 0.012876127 0.078736186
0.021161962 0.011279371 -0.16378543 0.06618423 -0.041125447 -0.17747074 0.16888337 -0.03737702
00000000: 56cb 1ebe 2f8e a0bc 6d36 1e3d 529f 3c3d
00000010: 2e8e 4dbc fe7c 6a3c d720 2a3c 7338 88bb
00000020: d04e 4d3d 160e 96bd 666b bc3b 830c 723d
00000030: ad7b fabd f03f ec3d 74a9 cb3d 0f20 babd
00000040: 6f58 2a3e ccb4 7bbd c930 0e3e 2da6 633c
00000050: 113e b53c d6d5 09be 49dc 82bc db0c 173c
00000060: 2001 eb3c cc06 3f3d 491c 31bc 009b a63d
00000070: 22fe b1bd 6c5b 13be 64f6 523c 7040 a13d
00000080: da5b ad3c 1ccd 383c 5eb7 27be 998b 873d
00000090: 2873 28bd e4ba 35be c3ef 2c3e a518 19bd

conv_block_2.2.weight f4 [40, 40, 3, 3]
0.057465028 0.024731332 -0.045514923 0.023227567 -0.052876513 0.011235035 -0.028409313 -0.048159417
0.009610755 -0.064572334 -0.081738725 -0.08990367 -0.1788342 -0.034869034 -0.04257264 -0.16643189
-0.22371282 -0.1759343 -0.09637273 -0.10546939 -0.023679188 0.041418932 0.07405535 0.07676633
-0.03745314 0.044601712 0.06358287 -0.0035304409 -0.10057979 -0.034642447 0.010974327 0.09593304
0.08778595 0.024432134 0.061909672 -0.0060682227 -0.03684666 0.008439117 -0.016812563 -0.0090101035
-0.024618313 -0.0038703396 -0.07840823 -0.049118895 -0.06915727 0.11158304 -0.0035973517 -0.097452514
0.02006036 -0.18205185 -0.1253765 -0.0909532 -0.12831217 -0.08971756 0.10197071 0.07924356
0.09085917 0.047441572 0.09711288 0.05058969 0.008765649 0.06794993 0.014575139 -0.015278449
0.021049354 0.009909145 -0.015097795 0.060292426 0.08598169 -0.0018095444 0.045970466 0.010094145
-0.038260832 -0.09395877 0.029027708 -0.018723072 -0.03842895 0.036998462 -0.019522846 -0.042218607
0.06986164 0.0107945865 -0.062419605 -0.043280613 -0.0034786877 -0.076354355 -0.08687748 -0.068679824
-0.068012096 -0.0351211 -0.036642447 0.045295447 0.041841403 0.040415578 -0.03323883 0.031169593
0.06306677 -0.02475073 0.06129721 -0.042353187 0.010133289 -0.0059214355 -0.0014998028 -0.055138428
0.030434188 -0.02312373 0.065689005 0.007400488 0.06630938 0.0016057221 0.030699302 -0.048410133
0.0067912196 -0.039807685 -0.012231314 -0.021594854 -0.045563333 -0.004840306 -0.036374345 -0.012349254
-0.06307624 -0.072960265 0.016457452 -0.0674572 -0.017162817 -0.024114883 -0.069917195 -0.09054493
-0.0071905083 -0.095941104 -0.12886098 0.022921728 -0.060890835 -0.1089269 -0.05108088 0.027101817
0.0031275493 0.078776054 0.096405946 0.06430113 0.13886245 0.05245778 0.078807965 0.035724394
-0.12280686 -0.10081024 -0.07296614 0.03756099 0.007546652 0.0050328104 0.038534943 -0.022108765
-0.055140957 -0.03277117 0.041702 0.07147227 -0.009314499 -0.01713765 0.04958206 -0.056410253
0.012349247 0.038281728 0.04545395 0.077175155 0.09263115 0.07611939 0.12299349 0.08644386
0.029009556 -0.0019061253 0.005142754 -0.01796707 0.042028982 0.008919915 0.0065772277 -0.014462121
-0.018994488 0.019019356 -0.010176203 -0.07466331 -0.042210177 -0.027722124 0.06509143 -0.06434986
0.009940529 0.066328205 -0.024364432 -0.038775977 0.06924716 -0.008557241 0.076117255 0.049765117
0.06768731 0.06730523 0.00393778 -0.004877359 0.0035314413 -0.038653366 0.028169358 -0.03680197
-0.028444247 -0.03959147 0.009323026 -0.0016519681 -0.031818952 -0.0137942 -0.005398719 0.07004281
0.04609741 0.028688109 0.06181684 0.024580078 0.01442899 0.007030964 -0.04966991 -0.040484097
-0.013192221 0.1108265 0.09343663 0.074305214 0.20576423 0.13070653 0.09486036 0.031435028
-0.017400252 -0.08268843 -0.055161543 0.08421929 0.001641492 0.07593189 0.08997708 0.06586382
0.052126758 0.011080923 0.16264948 -0.0013623724 0.06116197 0.062040348 0.011052403 -0.05271037
0.026439985 -0.04497766 -0.09618192 0.000107531996 0.009473075 0.055613644 -0.0955565 -0.0026760665
0.05589462 -0.08226713 0.02031481 -0.025094638 0.13865638 0.14160207 0.13693143 -0.021268012
00000000: 7360 6b3d 5d99 ca3c db6d 3abd bd47 be3c
00000010: 0b95 58bd 2713 383c a6ba e8bc cf42 45bd
00000020: 6e76 1d3c 803e 84bd a266 a7bd 6a1f b8bd
00000030: 5020 37be d5d2 0ebd a660 2ebd 1f6d 2abe
00000040: f914 65be 1f28 34be 115f c5bd 5600 d8bd
00000050: dbfa c1bc e6a6 293d 55aa 973d aa37 9d3d
00000060: 7768 19bd 49b0 363d bc37 823d f85e 67bb
00000070: c7fc cdbd 3de5 0dbd aacd 333c 8b78 c43d
00000080: 1fc9 b33d e625 c83c ff94 7d3d f1d7 c6bb
00000090: 86ec 16bd 3944 0a3c 80ba 89bc 1d9f 13bc
000000a0: 58ac c9bc 86a5 7dbb 7e94 a0bd e530 49bd
000000b0: 54a2 8dbd a685 e43d 8cc1 6bbb 2f95 c7bd
000000c0: a055 a43c cd6b 3abe b262 00be ac45 babd
000000d0: 4464 03be d7bd b7bd 05d6 d03d 734a a23d
000000e0: 5f14 ba3d 1852 423d 1ee3 c63d 2337 4f3d
000000f0: cc9d 0f3c 5529 8b3d 90cc 6e3c 7652 7abc
00000100: b26f ac3c f759 223c be5c 77bc 31f5 763d
00000110: 2b17 b03d 3c2e edba 874b 3c3d ea61 253c
00000120: 64b7 1cbd 756d c0bd 84cb ed3c 2161 99bc
00000130: ad67 1dbd b38b 173d 60ee 9fbc 6bed 2cbd
00000140: 9f13 8f3d c7db 303c b3ab 7fbd 0347 31bd
00000150: b2fa 63bb ac5f 9cbd d2ec b1bd 02a8 8cbd
00000160: ed49 8bbd 24db 0fbd 6416 16bd b887 393d
00000170: e461 2b3d ce8a 253d 7025 08bd 6057 ff3c
00000180: 2729 813d 0bc2 cabc c912 7b3d 897a 2dbd
00000190: 1806 263c 9a08 c2bb 0895 c4ba d5d8 61bd
000001a0: 1e51 f93c fa6d bdbc f587 863d cb7f f23b
000001b0: 36cd 873d 1877 d23a 1a7d fb3c b449 46bd
000001c0: e188 de3b 620d 23bd d965 48bc b1e7 b0bc
000001d0: 9ea0 3abd 6e9b 9ebb 44fd 14bd 8754 4abc
000001e0: 1e2e 81bd 316c 95bd c7d1 863c 0027 8abd
000001f0: 0999 8cbc 938c c5bc bf30 8fbd 9f6f b9bd
00000200: 5b9e ebbb c57c c4bd 22f4 03be 59c6 bb3c
00000210: ab68 79bd 1115 dfbd 2f3a 51bd a104 de3c
00000220: 92f7 4c3b 5755 a13d 7b70 c53d 50b0 833d
00000230: f531 0e3e f8dd 563d 1266 a13d be53 123d
00000240: 2a82 fbbd 9975 cebd 466f 95bd 8dd9 193d
00000250: e849 f73b 46ea a43b d1d6 1d3d 711d b5bc
00000260: 7cdb 61bd 103b 06bd b7cf 2a3d 0e60 923d
00000270: d79b 18bc 4264 8cbc 8f16 4b3d 700e 67bd
00000280: 7f54 4a3c 4dcd 1c3d ec2d 3a3d 020e 9e3d
00000290: 66b5 bd3d 7ce4 9b3d 03e4 fb3d 7a09 b13d
000002a0: 73a5 ed3c f4d6 f9ba 8c84 a83b ad2f 93bc
000002b0: 9526 2c3d d624 123c c985 d73b 88f2 6cbc
000002c0: 549a 9bbc 7bce 9b3c 17ba 26bc 14e9 98bd
000002d0: 94e4 2cbd 8219 e3bc a84e 853d dcc9 83bd
000002e0: 9add 223c 15d7 873d eb97 c7bc 8fd3 1ebd
000002f0: 74d1 8d3d ac33 0cbc 5de3 9b3d 82d6 4b3d
00000300: a59f 8a3d 53d7 893d 7e08 813b 41d2 9fbb
00000310: c16f 673b fe52 1ebd 6dc3 e63c aabd 16bd
00000320: e903 e9bc aa2a 22bd 9bbf 183c da86 d8ba
00000330: 9754 02bd 1101 62bc bde7 b0bb 9b72 8f3d
00000340: a3d0 3c3d 5303 eb3c a833 7d3d 295c c93c
00000350: 9267 6c3c 0064 e63b ad72 4bbd a7d2 25bd
00000360: 2f24 58bc 01f9 e23d b45b bf3d 552d 983d
00000370: dcb3 523e efd7 053e 2646 c23d 04c2 003d
00000380: f98a 8ebc 8d58 a9bd 12f1 61bd 2a7b ac3d
00000390: 5527 d73a 2e82 9b3d e745 b83d 9ce3 863d
000003a0: de82 553d c28c 353c 968d 263e a291 b2ba
000003b0: f984 7a3d 051e 7e3d 2315 353c d4e6 57bd
000003c0: ab98 d83c 7f3a 38bd 07fb c4bd cd82 e138
000003d0: f534 1b3c 22cb 633d 20b3 c3bd f260 2fbb
000003e0: c2f1 643d ab7b a8bd 3f6b a63c 4593 cdbc
000003f0: f0fb 0d3e 2200 113e c137 0c3e 413a aebc

conv_block_2.2.bias f4 [40]
0.03155676 0.085199915 0.17500508 0.024045879 -0.003356182 0.04930354 0.0549771 -0.061624408
-0.0122288335 -0.021503013 0.16565046 -0.03222648 0.030181542 0.048148394 -0.03949493 0.04298342
0.07561206 0.040901925 0.0825335 0.11860305 -0.046899274 0.033672974 0.036685348 0.09353746
0.024049077 -0.0049296324 0.0137392385 0.11060818 -0.016428174 0.03944286 -0.003156091 0.012110403
-0.054307237 0.08205372 -0.06198979 0.0020313496 0.035620034 0.16175054 0.03236544 0.08947785
00000000: a941 013d 4b7d ae3d 8834 333e ddfb c43c
00000010: 64f3 5bbb 82f2 493d ab2f 613d e069 7cbd
00000020: 725b 48bc 1627 b0bc 46a0 293e eaff 03bd
00000030: 483f f73c 4037 453d 70c5 21bd 620f 303d
00000040: 7fda 9a3d c788 273d 5307 a93d 28e6 f23d
00000050: 7419 40bd acec 093d 6043 163d 9190 bf3d
00000060: 9202 c53c c188 a1bb 8b1a 613c 8b86 e23d
00000070: 6194 86bc d68e 213d 6cd6 4ebb b66a 463c
00000080: 4471 5ebd c80b a83d 02e9 7dbd 6420 053b
00000090: 50e6 113d efa1 253e a091 043d 2a40 b73d

conv_block_2.4.weight f4 [40]
0.980532 1.0260894 1.0225394 0.96184295 0.96040416 0.9323774 1.0066732 0.98697567
0.97242886 1.011806 1.1566027 0.9660808 0.9597181 0.9111419 0.9582819 0.9575952
0.97295254 1.0105834 0.9699329 0.9638359 0.9678104 0.9623243 0.99218 0.92166066
0.9690678 0.97211987 1.1127893 0.91574734 0.9402778 0.9337713 0.9153017 0.95394766
0.8843615 0.9450708 1.1790764 0.88916624 0.9775742 0.97398 0.9973593 1.1112318
00000000: 2504 7b3f e656 833f 92e2 823f 573b 763f
00000010: 0cdd 753f 49b0 6e3f abda 803f 70aa 7c3f
00000020: 19f1 783f dc82 813f 8f0b 943f 1251 773f
00000030: 16b0 753f 9840 693f f651 753f f624 753f
00000040: 6b13 793f cc5a 813f 864d 783f f3bd 763f
00000050: 6cc2 773f e35a 763f 82ff 7d3f f4f1 6b3f
00000060: d414 783f d9dc 783f e16f 8e3f 6b6e 6a3f
00000070: 0cb6 703f a30b 6f3f 3651 6a3f ea35 743f
00000080: 8465 623f 29f0 713f faeb 963f 66a0 633f
00000090: 4e42 7a3f c156 793f f052 7f3f d83c 8e3f

conv_block_2.4.bias f4 [40]
-0.0049548876 0.033638746 0.0011865299 -0.0076415553 0.0013508108 0.065211594 -0.05504037 0.015413101
-0.0733955 -0.009819269 -0.14272021 -0.08541033 0.08878543 0.02526735 0.09598711 0.028128069
-0.013548959 -0.0029369204 0.017379485 0.058842987 -0.101462215 0.015081743 0.055518784 0.023253553
0.059930824 -0.055305723 0.005685294 0.061051797 -0.09040125 0.13014688 -0.11244687 0.106855586
-0.04073505 0.1447654 -0.010460805 0.034550384 -0.027898775 0.10297172 0.031671166 -0.0110882465
00000000: 9c5c a2bb c8c8 093d 5685 9b3a 0366 fabb
00000010: b00d b13a a88d 853d 0372 61bd 3b87 7c3c
00000020: 6150 96bd 00e1 20bc 3f25 12be 9ceb aebd
00000030: 23d5 b53d 79fd ce3c e494 c43d d66c e63c
00000040: 74fc 5dbc 5979 40bb 6c5f 8e3c 5805 713d
00000050: 6ccb cfbd 6a19 773c aa67 633d 3c7e be3c
00000060: 067a 753d 4188 62bd b44b ba3b 7311 7a3d
00000070: 4a24 b9bd 3945 053e 8b4a e6bd 1ad7 da3d
00000080: ccd9 26bd 623d 143e cc63 2bbc b484 0d3d
00000090: f98b e4bc d6e2 d23d a0b9 013d 7aab 35bc

conv_block_2.4.running_mean f4 [40]
1.8034661 4.0387173 7.230999 12.681559 5.345993 4.318371 11.796893 11.770461
12.456568 12.438591 0.4599232 15.215184 6.932888 13.125541 0.536833 3.1891725
10.647867 3.7661524 15.8652935 14.543938 3.1245568 6.246287 4.986991 2.1312048
0.040569827 7.055468 0.8846218 4.8946257 15.847929 8.736356 10.738791 6.0245013
6.1775265 7.659261 0.056382675 5.510556 7.6513247 2.3599436 5.6795816 1.0406613
00000000: fad7 e63f 2c3d 8140 5864 e740 aae7 4a41
00000010: 6012 ab40 1830 8a40 13c0 3c41 cf53 3c41
00000020: 1a4e 4741 7804 4741 0e7b eb3e 6571 7341
00000030: 38da dd40 3702 5241 e36d 093f 671b 4c40
00000040: aa5d 2a41 a408 7140 3ed8 7d41 f8b3 6841
00000050: bdf8 4740 95e1 c740 6e95 9f40 a965 0840
00000060: 8c2c 263d 65c6 e140 9376 623f c6a0 9c40
00000070: 1e91 7d41 1dc8 0b41 17d2 2b41 b7c8 c040
00000080: 4cae c540 ab18 f540 85f1 663d 7a56 b040
00000090: a7d7 f440 5109 1740 22bf b540 6434 853f

conv_block_2.4.running_var f4 [40]
21.731724 37.27995 39.880974 187.10187 66.73508 57.29247 184.40979 271.27612
186.68109 297.93588 4.0761228 269.35684 76.7206 238.51445 5.7491894 35.47084
186.10547 53.969006 340.43695 285.7852 43.083157 101.3177 53.066177 18.857027
0.28601465 81.3468 9.408771 55.434303 293.97855 152.85133 116.94864 86.97638
63.718266 145.29195 0.6061909 84.79935 87.36677 22.010891 85.42683 17.01737
00000000: 92da ad41 ab1e 1542 1e86 1f42 141a 3b43
00000010: 5c78 8542 7d2b 6542 e868 3843 58a3 8743
00000020: 5cae 3a43 cbf7 9443 996f 8240 adad 8643
00000030: f270 9942 b383 6e43 5cf9 b740 24e2 0d42
00000040: 001b 3a43 43e0 5742 ee37 aa43 81e4 8e43
00000050: 2755 2c42 aaa2 ca42 c443 5442 31db 9641
00000060: 8370 923e 90b1 a242 538a 1641 babc 5d42
00000070: 41fd 9243 f1d9 1843 b4e5 e942 e8f3 ad42
00000080: 81df 7e42 bd4a 1143 542f 1b3f 4499 a942
00000090: c9bb ae42 4e16 b041 89da aa42 9323 8841

conv_block_3.0.weight f4 [40, 40, 3, 3]
0.03255511 0.05777535 0.12065675 -0.10542386 0.070749074 -0.04556048 -0.058877442 -0.09172806
-0.04724361 -0.06453591 -0.104404934 -0.12343977 -0.045038305 -0.008234382 -0.07307633 0.108848244
0.10970695 -0.042050257 -0.12826753 -0.18820716 -0.10584042 0.043133456 -0.026703347 -0.04559377
0.10582002 0.0638222 0.04738395 0.09634281 0.15334623 0.107098006 0.0004943677 0.01616105
0.021771943 -0.05704776 -0.049283005 0.003389869 -0.07061047 -0.0242434 -0.042385887 0.047502756
0.08152005 -0.025208287 -0.030659575 0.026815638 -0.08653866 -0.01616064 -0.10092739 -0.0837712
-0.039749905 -0.07741641 -0.017395796 0.04529603 0.061779004 0.10552404 -0.018431604 0.027611962
0.08427136 -0.055075992 -0.05979486 -0.0028414454 -0.09428422 -0.12111166 -0.14386559 -0.043479625
-0.123307034 -0.07243958 0.037915543 -0.013743203 -0.05360287 0.09483124 0.04729101 0.048569284
0.085471705 0.11519058 0.10467775 -0.010265007 -0.06667186 -0.07233439 -0.066320576 -0.037493438
-0.08717013 0.009151099 -0.119177684 -0.12431966 0.012891521 -0.04876262 0.0045135594 0.09587025
0.04858226 -0.002419942 0.06286019 0.06921145 0.031589236 -0.0882446 0.07689333 0.0992706
-0.1233553 0.004147737 -0.011067105 0.062564746 0.088759996 0.052518256 -0.074485555 -0.15853791
-0.08532901 -0.034015894 0.028655155 -0.051827118 -0.018757178 -0.06662463 -0.11401963 0.122463696
0.09897728 0.046155106 -0.01857488 0.1254415 0.032925446 -0.08774889 -0.13225558 -0.10869939
-0.023878757 0.026156528 -0.043506995 0.06910137 0.06874351 0.077068046 -0.003906864 -0.040820125
0.0057181455 0.012826608 -0.076756544 -0.030132888 0.027682124 0.12390723 0.07612046 -0.018001348
0.10769506 0.014069905 -0.029947532 -0.06579472 -0.0637077 0.007657763 0.013014114 -0.025741812
0.03774723 -0.02144359 -0.01619932 -0.02890567 0.09073143 0.050225653 0.016894178 -0.0181978
-0.017235685 0.020538926 0.07614857 0.0060032676 -0.021864567 0.14930046 0.08651585 -0.02383868
-0.10587945 -0.041252155 -0.035586428 -0.02276452 -0.037187193 -0.027848125 -0.023023132 0.027426926
0.029257348 0.07548321 0.06261679 -0.023383163 0.0032634092 0.021626346 -0.06296013 0.058742393
0.019186532 -0.008395587 0.07428524 0.02068488 0.1009312 -0.023244187 -0.027991243 -0.021542896
0.07490659 0.04913325 -0.022954829 -0.016301861 0.007872308 0.008799314 -0.045184977 -0.021782221
0.10267346 0.03610776 -0.029674454 0.044849195 -0.011490826 -0.035351325 -0.029601932 -0.0902962
-0.13439634 -0.026809083 0.14027244 0.019763123 0.071280636 0.10856994 0.091605805 0.03408097
0.07645905 0.11976582 -0.03940208 -0.08198974 -0.06453936 0.003688499 -0.022447694 -0.033750053
-0.03579946 -0.051628508 0.03205563 0.06354371 0.052055288 -0.053580362 0.0422143 0.028074486
0.0975947 0.01924554 0.059763152 0.077255905 -0.031121474 -0.15253104 -0.07152605 0.021836666
-0.07179622 -0.003998789 0.030664297 0.1438601 0.10226947 -0.06289654 0.038925044 -0.00137015
-0.093710065 -0.12240296 -0.07788688 -0.0069470974 -0.05796637 -0.12626565 0.07768388 0.12805606
0.06543384 -0.03082641 0.13669178 0.045403082 0.029786885 0.17349905 0.124599926 -0.013301276
00000000: 8258 053d d8a5 6c3d e31a f73d 77e8 d7bd
00000010: e4e4 903d a09d 3abd 7929 71bd ecdb bbbd
00000020: 8482 41bd 672b 84bd 41d2 d5bd fdcd fcbd
00000030: 167a 38bd 80e9 06bc 0ba9 95bd d4eb de3d
00000040: 0aae e03d e43c 2cbd 9058 03be 61b9 40be
00000050: ddc2 d8bd b5ac 303d fac0 dabc 88c0 3abd
00000060: 2bb8 d83d 37b5 823d ac15 423d 614f c53d
00000070: cb06 1d3e 3356 db3d 7498 013a 2e64 843c
00000080: 135b b23c e9aa 69bd fadc 49bd 9028 5e3b
00000090: 399c 90bd 189a c6bc d39c 2dbd 4092 423d
000000a0: fcf3 a63d 9c81 cebc ca29 fbbc 78ac db3c
000000b0: 2e3b b1bd 5263 84bc 05b3 cebd 3c90 abbd
000000c0: ccd0 22bd 7f8c 9ebd a181 8ebc 5488 393d
000000d0: fb0b 7d3d fd1c d83d e0fd 96bc 7b32 e23c
000000e0: 7696 ac3d 5d97 61bd 75eb 74bd 8b37 3abb
000000f0: 1618 c1bd 6409 f8bd 8051 13be b117 32bd
00000100: 6688 fcbd 345b 94bd 544d 1b3d 2c2b 61bc
00000110: af8e 5bbd e236 c23d 38b4 413d 96f0 463d
00000120: ca0b af3d 0ae9 eb3d 4a61 d63d 8f2e 28bc
00000130: 428b 88bd 0d24 94bd 15d3 87bd b892 19bd
00000140: 4186 b2bd 7eee 153c 6e13 f4bd 4e9b febd
00000150: f536 533c 50bb 47bd 7be6 933b 9f57 c43d
00000160: 31fe 463d e497 1ebb d8bc 803d bcbe 8d3d
00000170: b763 013d 96b9 b4bd 407a 9d3d 624e cb3d
00000180: b4a1 fcbd bde9 873b ce52 35bc f221 803d
00000190: cdc7 b53d 621d 573d e28b 98bd c357 22be
000001a0: fac0 aebd 4054 0bbd 37be ea3c ac48 54bd
000001b0: a7a8 99bc 7e72 88bd 2083 e9bd 3fce fa3d
000001c0: 9ab4 ca3d 230d 3d3d 592a 98bc bd73 003e
000001d0: d5dc 063d b1b5 b3bd 026e 07be c99d debd
000001e0: 629d c3bc 3746 d63c 6434 32bd 0585 8d3d
000001f0: 66c9 8c3d dad5 9d3d 2705 80bb 0133 27bd
00000200: 485f bb3b b126 523c 8932 9dbd 3fd9 f6bc
00000210: 9fc5 e23c 13c3 fd3d 0be5 9b3d 9077 93bc
00000220: 3a8f dc3d 7585 663c 8754 f5bc 62bf 86bd
00000230: 2f79 82bd f9ed fa3b 2739 553c 7ee0 d2bc
00000240: d79c 1a3d 78aa afbc 70b4 84bc 95cb ecbc
00000250: 66d1 b93d 6ab9 4d3d a965 8a3c 8d13 95bc
00000260: da31 8dbc 4041 a83c c8f3 9b3d 0fb7 c43b
00000270: 521d b3bc 38e2 183e 392f b13d 5649 c3bc
00000280: 53d7 d8bd 05f8 28bd 13c3 11bd a97c babc
00000290: 9951 18bd c021 e4bc 029b bcbc 6fae e03c
000002a0: 1bad ef3c f196 9a3d 3b3d 803d 0c8e bfbc
000002b0: ecde 553b bc29 b13c 3ef1 80bd dd9b 703d
000002c0: 132d 9d3c a58d 09bc dc22 983d 5673 a93c
000002d0: 04b5 ce3d 986a bebc e44d e5bc ba7a b0bc
000002e0: a068 993d f23f 493d c40b bcbc 7b8b 85bc
000002f0: dafa 003c ff2a 103c e213 39bd a170 b2bc
00000300: 7746 d23d bbe5 133d d717 f3bc cab3 373d
00000310: 0444 3cbc 8dcc 10bd c07f f2bc 37ed b8bd
00000320: 329f 09be b99e dbbc 94a3 0f3e 46e6 a13c
00000330: 95fb 913d eb59 de3d d39b bb3d 7d98 0b3d
00000340: 9096 9c3d c847 f53d 1364 21bd 3dea a7bd
00000350: 362d 84bd bfba 713b 3ae4 b7bc 7f3d 0abd
00000360: 74a2 12bd 6a78 53bd c44c 033d 3423 823d
00000370: ed37 553d 1577 5bbd e7e8 2c3d 77fc e53c
00000380: bbdf c73d d3a8 9d3c 35ca 743d 5838 9e3d
00000390: 76f2 febc 1931 1cbe 407c 92bd cfe2 b23c
000003a0: e609 93bd 4608 83bb b133 fb3c 1050 133e
000003b0: a872 d13d e7cf 80bd de6f 1f3d 9b96 b3ba
000003c0: 10eb bfbd 67ae fabd 2883 9fbd 7aa4 e3bb
000003d0: 256e 6dbd c84b 01be ba18 9f3d 2121 033e
000003e0: 2d02 863d ab87 fcbc eef8 0b3e 95f8 393d
000003f0: a003 f43c bca9 313e 3f2e ff3d 98ed 59bc

conv_block_3.0.bias f4 [40]
0.20438035 0.1961863 0.06452885 0.07503941 -0.13774958 0.07359992 0.086085215 -0.023525657
0.04001716 0.014894615 0.10764287 0.081733905 0.032239247 0.12714554 -0.052686714 -0.0055326144
-0.027487459 0.18213364 -0.10339723 -0.0072596353 0.11270556 0.12160808 0.021842761 -0.06419385
-0.0632915 0.2950444 -0.025936052 0.1334956 -0.19020215 -0.047629118 -0.08604323 0.06571678
0.02022797 -0.005789907 -0.048715375 0.03474021 0.099556185 -0.10617468 -0.090162344 -0.13411601
00000000: 1549 513e 10e5 483e b427 843d 43ae 993d
00000010: 3a0e 0dbe 8ebb 963d 724d b03d e1b8 c0bc
00000020: 09e9 233d 8b08 743c dd73 dc3d 1b64 a73d
00000030: 4d0d 043d 7132 023e 06ce 57bd ef4a b5bb
00000040: 612d e1bc 3e81 3a3e edc1 d3bd 3ce2 edbb
00000050: 2cd2 e63d a80d f93d 97ef b23c 1178 83bd
00000060: f99e 81bd 0f10 973e d877 d4bc 12b3 083e
00000070: 5ac4 42be c016 43bd 6f37 b0bd 8596 863d
00000080: 21b5 a53c 43b9 bdbb c689 47bd c04b 0e3d
00000090: 1de4 cb3d 1c72 d9bd 09a7 b8bd b555 09be
